node {
  name: "input/Ob"
  op: "Placeholder"
  attr {
    key: "dtype"
    value {
      type: DT_FLOAT
    }
  }
  attr {
    key: "shape"
    value {
      shape {
        dim {
          size: -1
        }
        dim {
          size: 30
        }
      }
    }
  }
}
node {
  name: "model/flatten/Shape"
  op: "Shape"
  input: "input/Ob"
  attr {
    key: "T"
    value {
      type: DT_FLOAT
    }
  }
  attr {
    key: "out_type"
    value {
      type: DT_INT32
    }
  }
}
node {
  name: "model/flatten/strided_slice/stack"
  op: "Const"
  attr {
    key: "dtype"
    value {
      type: DT_INT32
    }
  }
  attr {
    key: "value"
    value {
      tensor {
        dtype: DT_INT32
        tensor_shape {
          dim {
            size: 1
          }
        }
        int_val: 0
      }
    }
  }
}
node {
  name: "model/flatten/strided_slice/stack_1"
  op: "Const"
  attr {
    key: "dtype"
    value {
      type: DT_INT32
    }
  }
  attr {
    key: "value"
    value {
      tensor {
        dtype: DT_INT32
        tensor_shape {
          dim {
            size: 1
          }
        }
        int_val: 1
      }
    }
  }
}
node {
  name: "model/flatten/strided_slice/stack_2"
  op: "Const"
  attr {
    key: "dtype"
    value {
      type: DT_INT32
    }
  }
  attr {
    key: "value"
    value {
      tensor {
        dtype: DT_INT32
        tensor_shape {
          dim {
            size: 1
          }
        }
        int_val: 1
      }
    }
  }
}
node {
  name: "model/flatten/strided_slice"
  op: "StridedSlice"
  input: "model/flatten/Shape"
  input: "model/flatten/strided_slice/stack"
  input: "model/flatten/strided_slice/stack_1"
  input: "model/flatten/strided_slice/stack_2"
  attr {
    key: "Index"
    value {
      type: DT_INT32
    }
  }
  attr {
    key: "T"
    value {
      type: DT_INT32
    }
  }
  attr {
    key: "begin_mask"
    value {
      i: 0
    }
  }
  attr {
    key: "ellipsis_mask"
    value {
      i: 0
    }
  }
  attr {
    key: "end_mask"
    value {
      i: 0
    }
  }
  attr {
    key: "new_axis_mask"
    value {
      i: 0
    }
  }
  attr {
    key: "shrink_axis_mask"
    value {
      i: 1
    }
  }
}
node {
  name: "model/flatten/Reshape/shape/1"
  op: "Const"
  attr {
    key: "dtype"
    value {
      type: DT_INT32
    }
  }
  attr {
    key: "value"
    value {
      tensor {
        dtype: DT_INT32
        tensor_shape {
        }
        int_val: -1
      }
    }
  }
}
node {
  name: "model/flatten/Reshape/shape"
  op: "Pack"
  input: "model/flatten/strided_slice"
  input: "model/flatten/Reshape/shape/1"
  attr {
    key: "N"
    value {
      i: 2
    }
  }
  attr {
    key: "T"
    value {
      type: DT_INT32
    }
  }
  attr {
    key: "axis"
    value {
      i: 0
    }
  }
}
node {
  name: "model/flatten/Reshape"
  op: "Reshape"
  input: "input/Ob"
  input: "model/flatten/Reshape/shape"
  attr {
    key: "T"
    value {
      type: DT_FLOAT
    }
  }
  attr {
    key: "Tshape"
    value {
      type: DT_INT32
    }
  }
}
node {
  name: "model/pi_fc0/w/Initializer/initial_value"
  op: "Const"
  attr {
    key: "_class"
    value {
      list {
        s: "loc:@model/pi_fc0/w"
      }
    }
  }
  attr {
    key: "dtype"
    value {
      type: DT_FLOAT
    }
  }
  attr {
    key: "value"
    value {
      tensor {
        dtype: DT_FLOAT
        tensor_shape {
          dim {
            size: 30
          }
          dim {
            size: 32
          }
        }
        tensor_content: "…"
      }
    }
  }
}
node {
  name: "model/pi_fc0/w"
  op: "Const"
  attr {
    key: "dtype"
    value {
      type: DT_FLOAT
    }
  }
  attr {
    key: "value"
    value {
      tensor {
        dtype: DT_FLOAT
        tensor_shape {
          dim {
            size: 30
          }
          dim {
            size: 32
          }
        }
        tensor_content: "…"
      }
    }
  }
}
node {
  name: "model/pi_fc0/w/Assign"
  op: "Identity"
  input: "model/pi_fc0/w/Initializer/initial_value"
  attr {
    key: "T"
    value {
      type: DT_FLOAT
    }
  }
  attr {
    key: "_class"
    value {
      list {
        s: "loc:@model/pi_fc0/w"
      }
    }
  }
}
node {
  name: "model/pi_fc0/w/read"
  op: "Identity"
  input: "model/pi_fc0/w"
  attr {
    key: "T"
    value {
      type: DT_FLOAT
    }
  }
  attr {
    key: "_class"
    value {
      list {
        s: "loc:@model/pi_fc0/w"
      }
    }
  }
}
node {
  name: "model/pi_fc0/b/Initializer/Const"
  op: "Const"
  attr {
    key: "_class"
    value {
      list {
        s: "loc:@model/pi_fc0/b"
      }
    }
  }
  attr {
    key: "dtype"
    value {
      type: DT_FLOAT
    }
  }
  attr {
    key: "value"
    value {
      tensor {
        dtype: DT_FLOAT
        tensor_shape {
          dim {
            size: 32
          }
        }
        float_val: 0.0
      }
    }
  }
}
node {
  name: "model/pi_fc0/b"
  op: "Const"
  attr {
    key: "dtype"
    value {
      type: DT_FLOAT
    }
  }
  attr {
    key: "value"
    value {
      tensor {
        dtype: DT_FLOAT
        tensor_shape {
          dim {
            size: 32
          }
        }
        tensor_content: "…"
      }
    }
  }
}
node {
  name: "model/pi_fc0/b/Assign"
  op: "Identity"
  input: "model/pi_fc0/b/Initializer/Const"
  attr {
    key: "T"
    value {
      type: DT_FLOAT
    }
  }
  attr {
    key: "_class"
    value {
      list {
        s: "loc:@model/pi_fc0/b"
      }
    }
  }
}
node {
  name: "model/pi_fc0/b/read"
  op: "Identity"
  input: "model/pi_fc0/b"
  attr {
    key: "T"
    value {
      type: DT_FLOAT
    }
  }
  attr {
    key: "_class"
    value {
      list {
        s: "loc:@model/pi_fc0/b"
      }
    }
  }
}
node {
  name: "model/pi_fc0/MatMul"
  op: "MatMul"
  input: "model/flatten/Reshape"
  input: "model/pi_fc0/w/read"
  attr {
    key: "T"
    value {
      type: DT_FLOAT
    }
  }
  attr {
    key: "transpose_a"
    value {
      b: false
    }
  }
  attr {
    key: "transpose_b"
    value {
      b: false
    }
  }
}
node {
  name: "model/pi_fc0/add"
  op: "Add"
  input: "model/pi_fc0/MatMul"
  input: "model/pi_fc0/b/read"
  attr {
    key: "T"
    value {
      type: DT_FLOAT
    }
  }
}
node {
  name: "model/Relu"
  op: "Relu"
  input: "model/pi_fc0/add"
  attr {
    key: "T"
    value {
      type: DT_FLOAT
    }
  }
}
node {
  name: "model/vf_fc0/w/Initializer/initial_value"
  op: "Const"
  attr {
    key: "_class"
    value {
      list {
        s: "loc:@model/vf_fc0/w"
      }
    }
  }
  attr {
    key: "dtype"
    value {
      type: DT_FLOAT
    }
  }
  attr {
    key: "value"
    value {
      tensor {
        dtype: DT_FLOAT
        tensor_shape {
          dim {
            size: 30
          }
          dim {
            size: 32
          }
        }
        tensor_content: "…"
      }
    }
  }
}
node {
  name: "model/vf_fc0/w"
  op: "Const"
  attr {
    key: "dtype"
    value {
      type: DT_FLOAT
    }
  }
  attr {
    key: "value"
    value {
      tensor {
        dtype: DT_FLOAT
        tensor_shape {
          dim {
            size: 30
          }
          dim {
            size: 32
          }
        }
        tensor_content: "…"
      }
    }
  }
}
node {
  name: "model/vf_fc0/w/Assign"
  op: "Identity"
  input: "model/vf_fc0/w/Initializer/initial_value"
  attr {
    key: "T"
    value {
      type: DT_FLOAT
    }
  }
  attr {
    key: "_class"
    value {
      list {
        s: "loc:@model/vf_fc0/w"
      }
    }
  }
}
node {
  name: "model/vf_fc0/w/read"
  op: "Identity"
  input: "model/vf_fc0/w"
  attr {
    key: "T"
    value {
      type: DT_FLOAT
    }
  }
  attr {
    key: "_class"
    value {
      list {
        s: "loc:@model/vf_fc0/w"
      }
    }
  }
}
node {
  name: "model/vf_fc0/b/Initializer/Const"
  op: "Const"
  attr {
    key: "_class"
    value {
      list {
        s: "loc:@model/vf_fc0/b"
      }
    }
  }
  attr {
    key: "dtype"
    value {
      type: DT_FLOAT
    }
  }
  attr {
    key: "value"
    value {
      tensor {
        dtype: DT_FLOAT
        tensor_shape {
          dim {
            size: 32
          }
        }
        float_val: 0.0
      }
    }
  }
}
node {
  name: "model/vf_fc0/b"
  op: "Const"
  attr {
    key: "dtype"
    value {
      type: DT_FLOAT
    }
  }
  attr {
    key: "value"
    value {
      tensor {
        dtype: DT_FLOAT
        tensor_shape {
          dim {
            size: 32
          }
        }
        tensor_content: "…"
      }
    }
  }
}
node {
  name: "model/vf_fc0/b/Assign"
  op: "Identity"
  input: "model/vf_fc0/b/Initializer/Const"
  attr {
    key: "T"
    value {
      type: DT_FLOAT
    }
  }
  attr {
    key: "_class"
    value {
      list {
        s: "loc:@model/vf_fc0/b"
      }
    }
  }
}
node {
  name: "model/vf_fc0/b/read"
  op: "Identity"
  input: "model/vf_fc0/b"
  attr {
    key: "T"
    value {
      type: DT_FLOAT
    }
  }
  attr {
    key: "_class"
    value {
      list {
        s: "loc:@model/vf_fc0/b"
      }
    }
  }
}
node {
  name: "model/vf_fc0/MatMul"
  op: "MatMul"
  input: "model/flatten/Reshape"
  input: "model/vf_fc0/w/read"
  attr {
    key: "T"
    value {
      type: DT_FLOAT
    }
  }
  attr {
    key: "transpose_a"
    value {
      b: false
    }
  }
  attr {
    key: "transpose_b"
    value {
      b: false
    }
  }
}
node {
  name: "model/vf_fc0/add"
  op: "Add"
  input: "model/vf_fc0/MatMul"
  input: "model/vf_fc0/b/read"
  attr {
    key: "T"
    value {
      type: DT_FLOAT
    }
  }
}
node {
  name: "model/Relu_1"
  op: "Relu"
  input: "model/vf_fc0/add"
  attr {
    key: "T"
    value {
      type: DT_FLOAT
    }
  }
}
node {
  name: "model/pi_fc1/w/Initializer/initial_value"
  op: "Const"
  attr {
    key: "_class"
    value {
      list {
        s: "loc:@model/pi_fc1/w"
      }
    }
  }
  attr {
    key: "dtype"
    value {
      type: DT_FLOAT
    }
  }
  attr {
    key: "value"
    value {
      tensor {
        dtype: DT_FLOAT
        tensor_shape {
          dim {
            size: 32
          }
          dim {
            size: 16
          }
        }
        tensor_content: "…"
      }
    }
  }
}
node {
  name: "model/pi_fc1/w"
  op: "Const"
  attr {
    key: "dtype"
    value {
      type: DT_FLOAT
    }
  }
  attr {
    key: "value"
    value {
      tensor {
        dtype: DT_FLOAT
        tensor_shape {
          dim {
            size: 32
          }
          dim {
            size: 16
          }
        }
        tensor_content: "…"
      }
    }
  }
}
node {
  name: "model/pi_fc1/w/Assign"
  op: "Identity"
  input: "model/pi_fc1/w/Initializer/initial_value"
  attr {
    key: "T"
    value {
      type: DT_FLOAT
    }
  }
  attr {
    key: "_class"
    value {
      list {
        s: "loc:@model/pi_fc1/w"
      }
    }
  }
}
node {
  name: "model/pi_fc1/w/read"
  op: "Identity"
  input: "model/pi_fc1/w"
  attr {
    key: "T"
    value {
      type: DT_FLOAT
    }
  }
  attr {
    key: "_class"
    value {
      list {
        s: "loc:@model/pi_fc1/w"
      }
    }
  }
}
node {
  name: "model/pi_fc1/b/Initializer/Const"
  op: "Const"
  attr {
    key: "_class"
    value {
      list {
        s: "loc:@model/pi_fc1/b"
      }
    }
  }
  attr {
    key: "dtype"
    value {
      type: DT_FLOAT
    }
  }
  attr {
    key: "value"
    value {
      tensor {
        dtype: DT_FLOAT
        tensor_shape {
          dim {
            size: 16
          }
        }
        float_val: 0.0
      }
    }
  }
}
node {
  name: "model/pi_fc1/b"
  op: "Const"
  attr {
    key: "dtype"
    value {
      type: DT_FLOAT
    }
  }
  attr {
    key: "value"
    value {
      tensor {
        dtype: DT_FLOAT
        tensor_shape {
          dim {
            size: 16
          }
        }
        tensor_content: "…"
      }
    }
  }
}
node {
  name: "model/pi_fc1/b/Assign"
  op: "Identity"
  input: "model/pi_fc1/b/Initializer/Const"
  attr {
    key: "T"
    value {
      type: DT_FLOAT
    }
  }
  attr {
    key: "_class"
    value {
      list {
        s: "loc:@model/pi_fc1/b"
      }
    }
  }
}
node {
  name: "model/pi_fc1/b/read"
  op: "Identity"
  input: "model/pi_fc1/b"
  attr {
    key: "T"
    value {
      type: DT_FLOAT
    }
  }
  attr {
    key: "_class"
    value {
      list {
        s: "loc:@model/pi_fc1/b"
      }
    }
  }
}
node {
  name: "model/pi_fc1/MatMul"
  op: "MatMul"
  input: "model/Relu"
  input: "model/pi_fc1/w/read"
  attr {
    key: "T"
    value {
      type: DT_FLOAT
    }
  }
  attr {
    key: "transpose_a"
    value {
      b: false
    }
  }
  attr {
    key: "transpose_b"
    value {
      b: false
    }
  }
}
node {
  name: "model/pi_fc1/add"
  op: "Add"
  input: "model/pi_fc1/MatMul"
  input: "model/pi_fc1/b/read"
  attr {
    key: "T"
    value {
      type: DT_FLOAT
    }
  }
}
node {
  name: "model/Relu_2"
  op: "Relu"
  input: "model/pi_fc1/add"
  attr {
    key: "T"
    value {
      type: DT_FLOAT
    }
  }
}
node {
  name: "model/vf_fc1/w/Initializer/initial_value"
  op: "Const"
  attr {
    key: "_class"
    value {
      list {
        s: "loc:@model/vf_fc1/w"
      }
    }
  }
  attr {
    key: "dtype"
    value {
      type: DT_FLOAT
    }
  }
  attr {
    key: "value"
    value {
      tensor {
        dtype: DT_FLOAT
        tensor_shape {
          dim {
            size: 32
          }
          dim {
            size: 16
          }
        }
        tensor_content: "…"
      }
    }
  }
}
node {
  name: "model/vf_fc1/w"
  op: "Const"
  attr {
    key: "dtype"
    value {
      type: DT_FLOAT
    }
  }
  attr {
    key: "value"
    value {
      tensor {
        dtype: DT_FLOAT
        tensor_shape {
          dim {
            size: 32
          }
          dim {
            size: 16
          }
        }
        tensor_content: "…"
      }
    }
  }
}
node {
  name: "model/vf_fc1/w/Assign"
  op: "Identity"
  input: "model/vf_fc1/w/Initializer/initial_value"
  attr {
    key: "T"
    value {
      type: DT_FLOAT
    }
  }
  attr {
    key: "_class"
    value {
      list {
        s: "loc:@model/vf_fc1/w"
      }
    }
  }
}
node {
  name: "model/vf_fc1/w/read"
  op: "Identity"
  input: "model/vf_fc1/w"
  attr {
    key: "T"
    value {
      type: DT_FLOAT
    }
  }
  attr {
    key: "_class"
    value {
      list {
        s: "loc:@model/vf_fc1/w"
      }
    }
  }
}
node {
  name: "model/vf_fc1/b/Initializer/Const"
  op: "Const"
  attr {
    key: "_class"
    value {
      list {
        s: "loc:@model/vf_fc1/b"
      }
    }
  }
  attr {
    key: "dtype"
    value {
      type: DT_FLOAT
    }
  }
  attr {
    key: "value"
    value {
      tensor {
        dtype: DT_FLOAT
        tensor_shape {
          dim {
            size: 16
          }
        }
        float_val: 0.0
      }
    }
  }
}
node {
  name: "model/vf_fc1/b"
  op: "Const"
  attr {
    key: "dtype"
    value {
      type: DT_FLOAT
    }
  }
  attr {
    key: "value"
    value {
      tensor {
        dtype: DT_FLOAT
        tensor_shape {
          dim {
            size: 16
          }
        }
        tensor_content: "…"
      }
    }
  }
}
node {
  name: "model/vf_fc1/b/Assign"
  op: "Identity"
  input: "model/vf_fc1/b/Initializer/Const"
  attr {
    key: "T"
    value {
      type: DT_FLOAT
    }
  }
  attr {
    key: "_class"
    value {
      list {
        s: "loc:@model/vf_fc1/b"
      }
    }
  }
}
node {
  name: "model/vf_fc1/b/read"
  op: "Identity"
  input: "model/vf_fc1/b"
  attr {
    key: "T"
    value {
      type: DT_FLOAT
    }
  }
  attr {
    key: "_class"
    value {
      list {
        s: "loc:@model/vf_fc1/b"
      }
    }
  }
}
node {
  name: "model/vf_fc1/MatMul"
  op: "MatMul"
  input: "model/Relu_1"
  input: "model/vf_fc1/w/read"
  attr {
    key: "T"
    value {
      type: DT_FLOAT
    }
  }
  attr {
    key: "transpose_a"
    value {
      b: false
    }
  }
  attr {
    key: "transpose_b"
    value {
      b: false
    }
  }
}
node {
  name: "model/vf_fc1/add"
  op: "Add"
  input: "model/vf_fc1/MatMul"
  input: "model/vf_fc1/b/read"
  attr {
    key: "T"
    value {
      type: DT_FLOAT
    }
  }
}
node {
  name: "model/Relu_3"
  op: "Relu"
  input: "model/vf_fc1/add"
  attr {
    key: "T"
    value {
      type: DT_FLOAT
    }
  }
}
node {
  name: "model/vf/w/Initializer/initial_value"
  op: "Const"
  attr {
    key: "_class"
    value {
      list {
        s: "loc:@model/vf/w"
      }
    }
  }
  attr {
    key: "dtype"
    value {
      type: DT_FLOAT
    }
  }
  attr {
    key: "value"
    value {
      tensor {
        dtype: DT_FLOAT
        tensor_shape {
          dim {
            size: 16
          }
          dim {
            size: 1
          }
        }
        tensor_content: "…"
      }
    }
  }
}
node {
  name: "model/vf/w"
  op: "Const"
  attr {
    key: "dtype"
    value {
      type: DT_FLOAT
    }
  }
  attr {
    key: "value"
    value {
      tensor {
        dtype: DT_FLOAT
        tensor_shape {
          dim {
            size: 16
          }
          dim {
            size: 1
          }
        }
        tensor_content: "…"
      }
    }
  }
}
node {
  name: "model/vf/w/Assign"
  op: "Identity"
  input: "model/vf/w/Initializer/initial_value"
  attr {
    key: "T"
    value {
      type: DT_FLOAT
    }
  }
  attr {
    key: "_class"
    value {
      list {
        s: "loc:@model/vf/w"
      }
    }
  }
}
node {
  name: "model/vf/w/read"
  op: "Identity"
  input: "model/vf/w"
  attr {
    key: "T"
    value {
      type: DT_FLOAT
    }
  }
  attr {
    key: "_class"
    value {
      list {
        s: "loc:@model/vf/w"
      }
    }
  }
}
node {
  name: "model/vf/b/Initializer/Const"
  op: "Const"
  attr {
    key: "_class"
    value {
      list {
        s: "loc:@model/vf/b"
      }
    }
  }
  attr {
    key: "dtype"
    value {
      type: DT_FLOAT
    }
  }
  attr {
    key: "value"
    value {
      tensor {
        dtype: DT_FLOAT
        tensor_shape {
          dim {
            size: 1
          }
        }
        float_val: 0.0
      }
    }
  }
}
node {
  name: "model/vf/b"
  op: "Const"
  attr {
    key: "dtype"
    value {
      type: DT_FLOAT
    }
  }
  attr {
    key: "value"
    value {
      tensor {
        dtype: DT_FLOAT
        tensor_shape {
          dim {
            size: 1
          }
        }
        float_val: 1.1864893436431885
      }
    }
  }
}
node {
  name: "model/vf/b/Assign"
  op: "Identity"
  input: "model/vf/b/Initializer/Const"
  attr {
    key: "T"
    value {
      type: DT_FLOAT
    }
  }
  attr {
    key: "_class"
    value {
      list {
        s: "loc:@model/vf/b"
      }
    }
  }
}
node {
  name: "model/vf/b/read"
  op: "Identity"
  input: "model/vf/b"
  attr {
    key: "T"
    value {
      type: DT_FLOAT
    }
  }
  attr {
    key: "_class"
    value {
      list {
        s: "loc:@model/vf/b"
      }
    }
  }
}
node {
  name: "model/vf/MatMul"
  op: "MatMul"
  input: "model/Relu_3"
  input: "model/vf/w/read"
  attr {
    key: "T"
    value {
      type: DT_FLOAT
    }
  }
  attr {
    key: "transpose_a"
    value {
      b: false
    }
  }
  attr {
    key: "transpose_b"
    value {
      b: false
    }
  }
}
node {
  name: "model/vf/add"
  op: "Add"
  input: "model/vf/MatMul"
  input: "model/vf/b/read"
  attr {
    key: "T"
    value {
      type: DT_FLOAT
    }
  }
}
node {
  name: "model/pi/w/Initializer/initial_value"
  op: "Const"
  attr {
    key: "_class"
    value {
      list {
        s: "loc:@model/pi/w"
      }
    }
  }
  attr {
    key: "dtype"
    value {
      type: DT_FLOAT
    }
  }
  attr {
    key: "value"
    value {
      tensor {
        dtype: DT_FLOAT
        tensor_shape {
          dim {
            size: 16
          }
          dim {
            size: 1
          }
        }
        tensor_content: "…"
      }
    }
  }
}
node {
  name: "model/pi/w"
  op: "Const"
  attr {
    key: "dtype"
    value {
      type: DT_FLOAT
    }
  }
  attr {
    key: "value"
    value {
      tensor {
        dtype: DT_FLOAT
        tensor_shape {
          dim {
            size: 16
          }
          dim {
            size: 1
          }
        }
        tensor_content: "…"
      }
    }
  }
}
node {
  name: "model/pi/w/Assign"
  op: "Identity"
  input: "model/pi/w/Initializer/initial_value"
  attr {
    key: "T"
    value {
      type: DT_FLOAT
    }
  }
  attr {
    key: "_class"
    value {
      list {
        s: "loc:@model/pi/w"
      }
    }
  }
}
node {
  name: "model/pi/w/read"
  op: "Identity"
  input: "model/pi/w"
  attr {
    key: "T"
    value {
      type: DT_FLOAT
    }
  }
  attr {
    key: "_class"
    value {
      list {
        s: "loc:@model/pi/w"
      }
    }
  }
}
node {
  name: "model/pi/b/Initializer/Const"
  op: "Const"
  attr {
    key: "_class"
    value {
      list {
        s: "loc:@model/pi/b"
      }
    }
  }
  attr {
    key: "dtype"
    value {
      type: DT_FLOAT
    }
  }
  attr {
    key: "value"
    value {
      tensor {
        dtype: DT_FLOAT
        tensor_shape {
          dim {
            size: 1
          }
        }
        float_val: 0.0
      }
    }
  }
}
node {
  name: "model/pi/b"
  op: "Const"
  attr {
    key: "dtype"
    value {
      type: DT_FLOAT
    }
  }
  attr {
    key: "value"
    value {
      tensor {
        dtype: DT_FLOAT
        tensor_shape {
          dim {
            size: 1
          }
        }
        float_val: 0.3546905219554901
      }
    }
  }
}
node {
  name: "model/pi/b/Assign"
  op: "Identity"
  input: "model/pi/b/Initializer/Const"
  attr {
    key: "T"
    value {
      type: DT_FLOAT
    }
  }
  attr {
    key: "_class"
    value {
      list {
        s: "loc:@model/pi/b"
      }
    }
  }
}
node {
  name: "model/pi/b/read"
  op: "Identity"
  input: "model/pi/b"
  attr {
    key: "T"
    value {
      type: DT_FLOAT
    }
  }
  attr {
    key: "_class"
    value {
      list {
        s: "loc:@model/pi/b"
      }
    }
  }
}
node {
  name: "model/pi/MatMul"
  op: "MatMul"
  input: "model/Relu_2"
  input: "model/pi/w/read"
  attr {
    key: "T"
    value {
      type: DT_FLOAT
    }
  }
  attr {
    key: "transpose_a"
    value {
      b: false
    }
  }
  attr {
    key: "transpose_b"
    value {
      b: false
    }
  }
}
node {
  name: "model/pi/add"
  op: "Add"
  input: "model/pi/MatMul"
  input: "model/pi/b/read"
  attr {
    key: "T"
    value {
      type: DT_FLOAT
    }
  }
}
node {
  name: "model/pi/logstd/Initializer/zeros"
  op: "Const"
  attr {
    key: "_class"
    value {
      list {
        s: "loc:@model/pi/logstd"
      }
    }
  }
  attr {
    key: "dtype"
    value {
      type: DT_FLOAT
    }
  }
  attr {
    key: "value"
    value {
      tensor {
        dtype: DT_FLOAT
        tensor_shape {
          dim {
            size: 1
          }
          dim {
            size: 1
          }
        }
        float_val: 0.0
      }
    }
  }
}
node {
  name: "model/pi/logstd"
  op: "Const"
  attr {
    key: "dtype"
    value {
      type: DT_FLOAT
    }
  }
  attr {
    key: "value"
    value {
      tensor {
        dtype: DT_FLOAT
        tensor_shape {
          dim {
            size: 1
          }
          dim {
            size: 1
          }
        }
        float_val: 0.7514435052871704
      }
    }
  }
}
node {
  name: "model/pi/logstd/Assign"
  op: "Identity"
  input: "model/pi/logstd/Initializer/zeros"
  attr {
    key: "T"
    value {
      type: DT_FLOAT
    }
  }
  attr {
    key: "_class"
    value {
      list {
        s: "loc:@model/pi/logstd"
      }
    }
  }
}
node {
  name: "model/pi/logstd/read"
  op: "Identity"
  input: "model/pi/logstd"
  attr {
    key: "T"
    value {
      type: DT_FLOAT
    }
  }
  attr {
    key: "_class"
    value {
      list {
        s: "loc:@model/pi/logstd"
      }
    }
  }
}
node {
  name: "model/mul/y"
  op: "Const"
  attr {
    key: "dtype"
    value {
      type: DT_FLOAT
    }
  }
  attr {
    key: "value"
    value {
      tensor {
        dtype: DT_FLOAT
        tensor_shape {
        }
        float_val: 0.0
      }
    }
  }
}
node {
  name: "model/mul"
  op: "Mul"
  input: "model/pi/add"
  input: "model/mul/y"
  attr {
    key: "T"
    value {
      type: DT_FLOAT
    }
  }
}
node {
  name: "model/add"
  op: "Add"
  input: "model/mul"
  input: "model/pi/logstd/read"
  attr {
    key: "T"
    value {
      type: DT_FLOAT
    }
  }
}
node {
  name: "model/concat/axis"
  op: "Const"
  attr {
    key: "dtype"
    value {
      type: DT_INT32
    }
  }
  attr {
    key: "value"
    value {
      tensor {
        dtype: DT_INT32
        tensor_shape {
        }
        int_val: 1
      }
    }
  }
}
node {
  name: "model/concat"
  op: "ConcatV2"
  input: "model/pi/add"
  input: "model/add"
  input: "model/concat/axis"
  attr {
    key: "N"
    value {
      i: 2
    }
  }
  attr {
    key: "T"
    value {
      type: DT_FLOAT
    }
  }
  attr {
    key: "Tidx"
    value {
      type: DT_INT32
    }
  }
}
node {
  name: "model/q/w/Initializer/initial_value"
  op: "Const"
  attr {
    key: "_class"
    value {
      list {
        s: "loc:@model/q/w"
      }
    }
  }
  attr {
    key: "dtype"
    value {
      type: DT_FLOAT
    }
  }
  attr {
    key: "value"
    value {
      tensor {
        dtype: DT_FLOAT
        tensor_shape {
          dim {
            size: 16
          }
          dim {
            size: 1
          }
        }
        tensor_content: "…"
      }
    }
  }
}
node {
  name: "model/q/w"
  op: "Const"
  attr {
    key: "dtype"
    value {
      type: DT_FLOAT
    }
  }
  attr {
    key: "value"
    value {
      tensor {
        dtype: DT_FLOAT
        tensor_shape {
          dim {
            size: 16
          }
          dim {
            size: 1
          }
        }
        tensor_content: "…"
      }
    }
  }
}
node {
  name: "model/q/w/Assign"
  op: "Identity"
  input: "model/q/w/Initializer/initial_value"
  attr {
    key: "T"
    value {
      type: DT_FLOAT
    }
  }
  attr {
    key: "_class"
    value {
      list {
        s: "loc:@model/q/w"
      }
    }
  }
}
node {
  name: "model/q/w/read"
  op: "Identity"
  input: "model/q/w"
  attr {
    key: "T"
    value {
      type: DT_FLOAT
    }
  }
  attr {
    key: "_class"
    value {
      list {
        s: "loc:@model/q/w"
      }
    }
  }
}
node {
  name: "model/q/b/Initializer/Const"
  op: "Const"
  attr {
    key: "_class"
    value {
      list {
        s: "loc:@model/q/b"
      }
    }
  }
  attr {
    key: "dtype"
    value {
      type: DT_FLOAT
    }
  }
  attr {
    key: "value"
    value {
      tensor {
        dtype: DT_FLOAT
        tensor_shape {
          dim {
            size: 1
          }
        }
        float_val: 0.0
      }
    }
  }
}
node {
  name: "model/q/b"
  op: "Const"
  attr {
    key: "dtype"
    value {
      type: DT_FLOAT
    }
  }
  attr {
    key: "value"
    value {
      tensor {
        dtype: DT_FLOAT
        tensor_shape {
          dim {
            size: 1
          }
        }
        float_val: 0.0
      }
    }
  }
}
node {
  name: "model/q/b/Assign"
  op: "Identity"
  input: "model/q/b/Initializer/Const"
  attr {
    key: "T"
    value {
      type: DT_FLOAT
    }
  }
  attr {
    key: "_class"
    value {
      list {
        s: "loc:@model/q/b"
      }
    }
  }
}
node {
  name: "model/q/b/read"
  op: "Identity"
  input: "model/q/b"
  attr {
    key: "T"
    value {
      type: DT_FLOAT
    }
  }
  attr {
    key: "_class"
    value {
      list {
        s: "loc:@model/q/b"
      }
    }
  }
}
node {
  name: "model/q/MatMul"
  op: "MatMul"
  input: "model/Relu_3"
  input: "model/q/w/read"
  attr {
    key: "T"
    value {
      type: DT_FLOAT
    }
  }
  attr {
    key: "transpose_a"
    value {
      b: false
    }
  }
  attr {
    key: "transpose_b"
    value {
      b: false
    }
  }
}
node {
  name: "model/q/add"
  op: "Add"
  input: "model/q/MatMul"
  input: "model/q/b/read"
  attr {
    key: "T"
    value {
      type: DT_FLOAT
    }
  }
}
node {
  name: "model/Const"
  op: "Const"
  attr {
    key: "dtype"
    value {
      type: DT_INT32
    }
  }
  attr {
    key: "value"
    value {
      tensor {
        dtype: DT_INT32
        tensor_shape {
        }
        int_val: 2
      }
    }
  }
}
node {
  name: "model/split/split_dim"
  op: "Const"
  attr {
    key: "dtype"
    value {
      type: DT_INT32
    }
  }
  attr {
    key: "value"
    value {
      tensor {
        dtype: DT_INT32
        tensor_shape {
        }
        int_val: 1
      }
    }
  }
}
node {
  name: "model/split"
  op: "Split"
  input: "model/split/split_dim"
  input: "model/concat"
  attr {
    key: "T"
    value {
      type: DT_FLOAT
    }
  }
  attr {
    key: "num_split"
    value {
      i: 2
    }
  }
}
node {
  name: "model/Exp"
  op: "Exp"
  input: "model/split:1"
  attr {
    key: "T"
    value {
      type: DT_FLOAT
    }
  }
}
node {
  name: "output/Shape"
  op: "Shape"
  input: "model/split"
  attr {
    key: "T"
    value {
      type: DT_FLOAT
    }
  }
  attr {
    key: "out_type"
    value {
      type: DT_INT32
    }
  }
}
node {
  name: "output/random_normal/mean"
  op: "Const"
  attr {
    key: "dtype"
    value {
      type: DT_FLOAT
    }
  }
  attr {
    key: "value"
    value {
      tensor {
        dtype: DT_FLOAT
        tensor_shape {
        }
        float_val: 0.0
      }
    }
  }
}
node {
  name: "output/random_normal/stddev"
  op: "Const"
  attr {
    key: "dtype"
    value {
      type: DT_FLOAT
    }
  }
  attr {
    key: "value"
    value {
      tensor {
        dtype: DT_FLOAT
        tensor_shape {
        }
        float_val: 1.0
      }
    }
  }
}
node {
  name: "output/random_normal/RandomStandardNormal"
  op: "RandomStandardNormal"
  input: "output/Shape"
  attr {
    key: "T"
    value {
      type: DT_INT32
    }
  }
  attr {
    key: "dtype"
    value {
      type: DT_FLOAT
    }
  }
  attr {
    key: "seed"
    value {
      i: 0
    }
  }
  attr {
    key: "seed2"
    value {
      i: 0
    }
  }
}
node {
  name: "output/random_normal/mul"
  op: "Mul"
  input: "output/random_normal/RandomStandardNormal"
  input: "output/random_normal/stddev"
  attr {
    key: "T"
    value {
      type: DT_FLOAT
    }
  }
}
node {
  name: "output/random_normal"
  op: "Add"
  input: "output/random_normal/mul"
  input: "output/random_normal/mean"
  attr {
    key: "T"
    value {
      type: DT_FLOAT
    }
  }
}
node {
  name: "output/mul"
  op: "Mul"
  input: "model/Exp"
  input: "output/random_normal"
  attr {
    key: "T"
    value {
      type: DT_FLOAT
    }
  }
}
node {
  name: "output/add"
  op: "Add"
  input: "model/split"
  input: "output/mul"
  attr {
    key: "T"
    value {
      type: DT_FLOAT
    }
  }
}
node {
  name: "output/sub"
  op: "Sub"
  input: "output/add"
  input: "model/split"
  attr {
    key: "T"
    value {
      type: DT_FLOAT
    }
  }
}
node {
  name: "output/truediv"
  op: "RealDiv"
  input: "output/sub"
  input: "model/Exp"
  attr {
    key: "T"
    value {
      type: DT_FLOAT
    }
  }
}
node {
  name: "output/Square"
  op: "Square"
  input: "output/truediv"
  attr {
    key: "T"
    value {
      type: DT_FLOAT
    }
  }
}
node {
  name: "output/Sum/reduction_indices"
  op: "Const"
  attr {
    key: "dtype"
    value {
      type: DT_INT32
    }
  }
  attr {
    key: "value"
    value {
      tensor {
        dtype: DT_INT32
        tensor_shape {
        }
        int_val: -1
      }
    }
  }
}
node {
  name: "output/Sum"
  op: "Sum"
  input: "output/Square"
  input: "output/Sum/reduction_indices"
  attr {
    key: "T"
    value {
      type: DT_FLOAT
    }
  }
  attr {
    key: "Tidx"
    value {
      type: DT_INT32
    }
  }
  attr {
    key: "keep_dims"
    value {
      b: false
    }
  }
}
node {
  name: "output/mul_1/x"
  op: "Const"
  attr {
    key: "dtype"
    value {
      type: DT_FLOAT
    }
  }
  attr {
    key: "value"
    value {
      tensor {
        dtype: DT_FLOAT
        tensor_shape {
        }
        float_val: 0.5
      }
    }
  }
}
node {
  name: "output/mul_1"
  op: "Mul"
  input: "output/mul_1/x"
  input: "output/Sum"
  attr {
    key: "T"
    value {
      type: DT_FLOAT
    }
  }
}
node {
  name: "output/Shape_1"
  op: "Shape"
  input: "output/add"
  attr {
    key: "T"
    value {
      type: DT_FLOAT
    }
  }
  attr {
    key: "out_type"
    value {
      type: DT_INT32
    }
  }
}
node {
  name: "output/strided_slice/stack"
  op: "Const"
  attr {
    key: "dtype"
    value {
      type: DT_INT32
    }
  }
  attr {
    key: "value"
    value {
      tensor {
        dtype: DT_INT32
        tensor_shape {
          dim {
            size: 1
          }
        }
        int_val: -1
      }
    }
  }
}
node {
  name: "output/strided_slice/stack_1"
  op: "Const"
  attr {
    key: "dtype"
    value {
      type: DT_INT32
    }
  }
  attr {
    key: "value"
    value {
      tensor {
        dtype: DT_INT32
        tensor_shape {
          dim {
            size: 1
          }
        }
        int_val: 0
      }
    }
  }
}
node {
  name: "output/strided_slice/stack_2"
  op: "Const"
  attr {
    key: "dtype"
    value {
      type: DT_INT32
    }
  }
  attr {
    key: "value"
    value {
      tensor {
        dtype: DT_INT32
        tensor_shape {
          dim {
            size: 1
          }
        }
        int_val: 1
      }
    }
  }
}
node {
  name: "output/strided_slice"
  op: "StridedSlice"
  input: "output/Shape_1"
  input: "output/strided_slice/stack"
  input: "output/strided_slice/stack_1"
  input: "output/strided_slice/stack_2"
  attr {
    key: "Index"
    value {
      type: DT_INT32
    }
  }
  attr {
    key: "T"
    value {
      type: DT_INT32
    }
  }
  attr {
    key: "begin_mask"
    value {
      i: 0
    }
  }
  attr {
    key: "ellipsis_mask"
    value {
      i: 0
    }
  }
  attr {
    key: "end_mask"
    value {
      i: 0
    }
  }
  attr {
    key: "new_axis_mask"
    value {
      i: 0
    }
  }
  attr {
    key: "shrink_axis_mask"
    value {
      i: 1
    }
  }
}
node {
  name: "output/Cast"
  op: "Cast"
  input: "output/strided_slice"
  attr {
    key: "DstT"
    value {
      type: DT_FLOAT
    }
  }
  attr {
    key: "SrcT"
    value {
      type: DT_INT32
    }
  }
  attr {
    key: "Truncate"
    value {
      b: false
    }
  }
}
node {
  name: "output/mul_2/x"
  op: "Const"
  attr {
    key: "dtype"
    value {
      type: DT_FLOAT
    }
  }
  attr {
    key: "value"
    value {
      tensor {
        dtype: DT_FLOAT
        tensor_shape {
        }
        float_val: 0.9189385175704956
      }
    }
  }
}
node {
  name: "output/mul_2"
  op: "Mul"
  input: "output/mul_2/x"
  input: "output/Cast"
  attr {
    key: "T"
    value {
      type: DT_FLOAT
    }
  }
}
node {
  name: "output/add_1"
  op: "Add"
  input: "output/mul_1"
  input: "output/mul_2"
  attr {
    key: "T"
    value {
      type: DT_FLOAT
    }
  }
}
node {
  name: "output/Sum_1/reduction_indices"
  op: "Const"
  attr {
    key: "dtype"
    value {
      type: DT_INT32
    }
  }
  attr {
    key: "value"
    value {
      tensor {
        dtype: DT_INT32
        tensor_shape {
        }
        int_val: -1
      }
    }
  }
}
node {
  name: "output/Sum_1"
  op: "Sum"
  input: "model/split:1"
  input: "output/Sum_1/reduction_indices"
  attr {
    key: "T"
    value {
      type: DT_FLOAT
    }
  }
  attr {
    key: "Tidx"
    value {
      type: DT_INT32
    }
  }
  attr {
    key: "keep_dims"
    value {
      b: false
    }
  }
}
node {
  name: "output/add_2"
  op: "Add"
  input: "output/add_1"
  input: "output/Sum_1"
  attr {
    key: "T"
    value {
      type: DT_FLOAT
    }
  }
}
node {
  name: "output/strided_slice_1/stack"
  op: "Const"
  attr {
    key: "dtype"
    value {
      type: DT_INT32
    }
  }
  attr {
    key: "value"
    value {
      tensor {
        dtype: DT_INT32
        tensor_shape {
          dim {
            size: 2
          }
        }
        tensor_content: "\000\000\000\000\000\000\000\000"
      }
    }
  }
}
node {
  name: "output/strided_slice_1/stack_1"
  op: "Const"
  attr {
    key: "dtype"
    value {
      type: DT_INT32
    }
  }
  attr {
    key: "value"
    value {
      tensor {
        dtype: DT_INT32
        tensor_shape {
          dim {
            size: 2
          }
        }
        tensor_content: "\000\000\000\000\001\000\000\000"
      }
    }
  }
}
node {
  name: "output/strided_slice_1/stack_2"
  op: "Const"
  attr {
    key: "dtype"
    value {
      type: DT_INT32
    }
  }
  attr {
    key: "value"
    value {
      tensor {
        dtype: DT_INT32
        tensor_shape {
          dim {
            size: 2
          }
        }
        tensor_content: "\001\000\000\000\001\000\000\000"
      }
    }
  }
}
node {
  name: "output/strided_slice_1"
  op: "StridedSlice"
  input: "model/vf/add"
  input: "output/strided_slice_1/stack"
  input: "output/strided_slice_1/stack_1"
  input: "output/strided_slice_1/stack_2"
  attr {
    key: "Index"
    value {
      type: DT_INT32
    }
  }
  attr {
    key: "T"
    value {
      type: DT_FLOAT
    }
  }
  attr {
    key: "begin_mask"
    value {
      i: 1
    }
  }
  attr {
    key: "ellipsis_mask"
    value {
      i: 0
    }
  }
  attr {
    key: "end_mask"
    value {
      i: 1
    }
  }
  attr {
    key: "new_axis_mask"
    value {
      i: 0
    }
  }
  attr {
    key: "shrink_axis_mask"
    value {
      i: 2
    }
  }
}
node {
  name: "oldpi/input/Ob"
  op: "Placeholder"
  attr {
    key: "dtype"
    value {
      type: DT_FLOAT
    }
  }
  attr {
    key: "shape"
    value {
      shape {
        dim {
          size: -1
        }
        dim {
          size: 30
        }
      }
    }
  }
}
node {
  name: "oldpi/model/flatten/Shape"
  op: "Shape"
  input: "oldpi/input/Ob"
  attr {
    key: "T"
    value {
      type: DT_FLOAT
    }
  }
  attr {
    key: "out_type"
    value {
      type: DT_INT32
    }
  }
}
node {
  name: "oldpi/model/flatten/strided_slice/stack"
  op: "Const"
  attr {
    key: "dtype"
    value {
      type: DT_INT32
    }
  }
  attr {
    key: "value"
    value {
      tensor {
        dtype: DT_INT32
        tensor_shape {
          dim {
            size: 1
          }
        }
        int_val: 0
      }
    }
  }
}
node {
  name: "oldpi/model/flatten/strided_slice/stack_1"
  op: "Const"
  attr {
    key: "dtype"
    value {
      type: DT_INT32
    }
  }
  attr {
    key: "value"
    value {
      tensor {
        dtype: DT_INT32
        tensor_shape {
          dim {
            size: 1
          }
        }
        int_val: 1
      }
    }
  }
}
node {
  name: "oldpi/model/flatten/strided_slice/stack_2"
  op: "Const"
  attr {
    key: "dtype"
    value {
      type: DT_INT32
    }
  }
  attr {
    key: "value"
    value {
      tensor {
        dtype: DT_INT32
        tensor_shape {
          dim {
            size: 1
          }
        }
        int_val: 1
      }
    }
  }
}
node {
  name: "oldpi/model/flatten/strided_slice"
  op: "StridedSlice"
  input: "oldpi/model/flatten/Shape"
  input: "oldpi/model/flatten/strided_slice/stack"
  input: "oldpi/model/flatten/strided_slice/stack_1"
  input: "oldpi/model/flatten/strided_slice/stack_2"
  attr {
    key: "Index"
    value {
      type: DT_INT32
    }
  }
  attr {
    key: "T"
    value {
      type: DT_INT32
    }
  }
  attr {
    key: "begin_mask"
    value {
      i: 0
    }
  }
  attr {
    key: "ellipsis_mask"
    value {
      i: 0
    }
  }
  attr {
    key: "end_mask"
    value {
      i: 0
    }
  }
  attr {
    key: "new_axis_mask"
    value {
      i: 0
    }
  }
  attr {
    key: "shrink_axis_mask"
    value {
      i: 1
    }
  }
}
node {
  name: "oldpi/model/flatten/Reshape/shape/1"
  op: "Const"
  attr {
    key: "dtype"
    value {
      type: DT_INT32
    }
  }
  attr {
    key: "value"
    value {
      tensor {
        dtype: DT_INT32
        tensor_shape {
        }
        int_val: -1
      }
    }
  }
}
node {
  name: "oldpi/model/flatten/Reshape/shape"
  op: "Pack"
  input: "oldpi/model/flatten/strided_slice"
  input: "oldpi/model/flatten/Reshape/shape/1"
  attr {
    key: "N"
    value {
      i: 2
    }
  }
  attr {
    key: "T"
    value {
      type: DT_INT32
    }
  }
  attr {
    key: "axis"
    value {
      i: 0
    }
  }
}
node {
  name: "oldpi/model/flatten/Reshape"
  op: "Reshape"
  input: "oldpi/input/Ob"
  input: "oldpi/model/flatten/Reshape/shape"
  attr {
    key: "T"
    value {
      type: DT_FLOAT
    }
  }
  attr {
    key: "Tshape"
    value {
      type: DT_INT32
    }
  }
}
node {
  name: "oldpi/model/pi_fc0/w/Initializer/initial_value"
  op: "Const"
  attr {
    key: "_class"
    value {
      list {
        s: "loc:@oldpi/model/pi_fc0/w"
      }
    }
  }
  attr {
    key: "dtype"
    value {
      type: DT_FLOAT
    }
  }
  attr {
    key: "value"
    value {
      tensor {
        dtype: DT_FLOAT
        tensor_shape {
          dim {
            size: 30
          }
          dim {
            size: 32
          }
        }
        tensor_content: "…"
      }
    }
  }
}
node {
  name: "oldpi/model/pi_fc0/w"
  op: "Const"
  attr {
    key: "dtype"
    value {
      type: DT_FLOAT
    }
  }
  attr {
    key: "value"
    value {
      tensor {
        dtype: DT_FLOAT
        tensor_shape {
          dim {
            size: 30
          }
          dim {
            size: 32
          }
        }
        tensor_content: "…"
      }
    }
  }
}
node {
  name: "oldpi/model/pi_fc0/w/Assign"
  op: "Identity"
  input: "oldpi/model/pi_fc0/w/Initializer/initial_value"
  attr {
    key: "T"
    value {
      type: DT_FLOAT
    }
  }
  attr {
    key: "_class"
    value {
      list {
        s: "loc:@oldpi/model/pi_fc0/w"
      }
    }
  }
}
node {
  name: "oldpi/model/pi_fc0/w/read"
  op: "Identity"
  input: "oldpi/model/pi_fc0/w"
  attr {
    key: "T"
    value {
      type: DT_FLOAT
    }
  }
  attr {
    key: "_class"
    value {
      list {
        s: "loc:@oldpi/model/pi_fc0/w"
      }
    }
  }
}
node {
  name: "oldpi/model/pi_fc0/b/Initializer/Const"
  op: "Const"
  attr {
    key: "_class"
    value {
      list {
        s: "loc:@oldpi/model/pi_fc0/b"
      }
    }
  }
  attr {
    key: "dtype"
    value {
      type: DT_FLOAT
    }
  }
  attr {
    key: "value"
    value {
      tensor {
        dtype: DT_FLOAT
        tensor_shape {
          dim {
            size: 32
          }
        }
        float_val: 0.0
      }
    }
  }
}
node {
  name: "oldpi/model/pi_fc0/b"
  op: "Const"
  attr {
    key: "dtype"
    value {
      type: DT_FLOAT
    }
  }
  attr {
    key: "value"
    value {
      tensor {
        dtype: DT_FLOAT
        tensor_shape {
          dim {
            size: 32
          }
        }
        tensor_content: "…"
      }
    }
  }
}
node {
  name: "oldpi/model/pi_fc0/b/Assign"
  op: "Identity"
  input: "oldpi/model/pi_fc0/b/Initializer/Const"
  attr {
    key: "T"
    value {
      type: DT_FLOAT
    }
  }
  attr {
    key: "_class"
    value {
      list {
        s: "loc:@oldpi/model/pi_fc0/b"
      }
    }
  }
}
node {
  name: "oldpi/model/pi_fc0/b/read"
  op: "Identity"
  input: "oldpi/model/pi_fc0/b"
  attr {
    key: "T"
    value {
      type: DT_FLOAT
    }
  }
  attr {
    key: "_class"
    value {
      list {
        s: "loc:@oldpi/model/pi_fc0/b"
      }
    }
  }
}
node {
  name: "oldpi/model/pi_fc0/MatMul"
  op: "MatMul"
  input: "oldpi/model/flatten/Reshape"
  input: "oldpi/model/pi_fc0/w/read"
  attr {
    key: "T"
    value {
      type: DT_FLOAT
    }
  }
  attr {
    key: "transpose_a"
    value {
      b: false
    }
  }
  attr {
    key: "transpose_b"
    value {
      b: false
    }
  }
}
node {
  name: "oldpi/model/pi_fc0/add"
  op: "Add"
  input: "oldpi/model/pi_fc0/MatMul"
  input: "oldpi/model/pi_fc0/b/read"
  attr {
    key: "T"
    value {
      type: DT_FLOAT
    }
  }
}
node {
  name: "oldpi/model/Relu"
  op: "Relu"
  input: "oldpi/model/pi_fc0/add"
  attr {
    key: "T"
    value {
      type: DT_FLOAT
    }
  }
}
node {
  name: "oldpi/model/vf_fc0/w/Initializer/initial_value"
  op: "Const"
  attr {
    key: "_class"
    value {
      list {
        s: "loc:@oldpi/model/vf_fc0/w"
      }
    }
  }
  attr {
    key: "dtype"
    value {
      type: DT_FLOAT
    }
  }
  attr {
    key: "value"
    value {
      tensor {
        dtype: DT_FLOAT
        tensor_shape {
          dim {
            size: 30
          }
          dim {
            size: 32
          }
        }
        tensor_content: "…"
      }
    }
  }
}
node {
  name: "oldpi/model/vf_fc0/w"
  op: "Const"
  attr {
    key: "dtype"
    value {
      type: DT_FLOAT
    }
  }
  attr {
    key: "value"
    value {
      tensor {
        dtype: DT_FLOAT
        tensor_shape {
          dim {
            size: 30
          }
          dim {
            size: 32
          }
        }
        tensor_content: "…"
      }
    }
  }
}
node {
  name: "oldpi/model/vf_fc0/w/Assign"
  op: "Identity"
  input: "oldpi/model/vf_fc0/w/Initializer/initial_value"
  attr {
    key: "T"
    value {
      type: DT_FLOAT
    }
  }
  attr {
    key: "_class"
    value {
      list {
        s: "loc:@oldpi/model/vf_fc0/w"
      }
    }
  }
}
node {
  name: "oldpi/model/vf_fc0/w/read"
  op: "Identity"
  input: "oldpi/model/vf_fc0/w"
  attr {
    key: "T"
    value {
      type: DT_FLOAT
    }
  }
  attr {
    key: "_class"
    value {
      list {
        s: "loc:@oldpi/model/vf_fc0/w"
      }
    }
  }
}
node {
  name: "oldpi/model/vf_fc0/b/Initializer/Const"
  op: "Const"
  attr {
    key: "_class"
    value {
      list {
        s: "loc:@oldpi/model/vf_fc0/b"
      }
    }
  }
  attr {
    key: "dtype"
    value {
      type: DT_FLOAT
    }
  }
  attr {
    key: "value"
    value {
      tensor {
        dtype: DT_FLOAT
        tensor_shape {
          dim {
            size: 32
          }
        }
        float_val: 0.0
      }
    }
  }
}
node {
  name: "oldpi/model/vf_fc0/b"
  op: "Const"
  attr {
    key: "dtype"
    value {
      type: DT_FLOAT
    }
  }
  attr {
    key: "value"
    value {
      tensor {
        dtype: DT_FLOAT
        tensor_shape {
          dim {
            size: 32
          }
        }
        tensor_content: "…"
      }
    }
  }
}
node {
  name: "oldpi/model/vf_fc0/b/Assign"
  op: "Identity"
  input: "oldpi/model/vf_fc0/b/Initializer/Const"
  attr {
    key: "T"
    value {
      type: DT_FLOAT
    }
  }
  attr {
    key: "_class"
    value {
      list {
        s: "loc:@oldpi/model/vf_fc0/b"
      }
    }
  }
}
node {
  name: "oldpi/model/vf_fc0/b/read"
  op: "Identity"
  input: "oldpi/model/vf_fc0/b"
  attr {
    key: "T"
    value {
      type: DT_FLOAT
    }
  }
  attr {
    key: "_class"
    value {
      list {
        s: "loc:@oldpi/model/vf_fc0/b"
      }
    }
  }
}
node {
  name: "oldpi/model/vf_fc0/MatMul"
  op: "MatMul"
  input: "oldpi/model/flatten/Reshape"
  input: "oldpi/model/vf_fc0/w/read"
  attr {
    key: "T"
    value {
      type: DT_FLOAT
    }
  }
  attr {
    key: "transpose_a"
    value {
      b: false
    }
  }
  attr {
    key: "transpose_b"
    value {
      b: false
    }
  }
}
node {
  name: "oldpi/model/vf_fc0/add"
  op: "Add"
  input: "oldpi/model/vf_fc0/MatMul"
  input: "oldpi/model/vf_fc0/b/read"
  attr {
    key: "T"
    value {
      type: DT_FLOAT
    }
  }
}
node {
  name: "oldpi/model/Relu_1"
  op: "Relu"
  input: "oldpi/model/vf_fc0/add"
  attr {
    key: "T"
    value {
      type: DT_FLOAT
    }
  }
}
node {
  name: "oldpi/model/pi_fc1/w/Initializer/initial_value"
  op: "Const"
  attr {
    key: "_class"
    value {
      list {
        s: "loc:@oldpi/model/pi_fc1/w"
      }
    }
  }
  attr {
    key: "dtype"
    value {
      type: DT_FLOAT
    }
  }
  attr {
    key: "value"
    value {
      tensor {
        dtype: DT_FLOAT
        tensor_shape {
          dim {
            size: 32
          }
          dim {
            size: 16
          }
        }
        tensor_content: "…"
      }
    }
  }
}
node {
  name: "oldpi/model/pi_fc1/w"
  op: "Const"
  attr {
    key: "dtype"
    value {
      type: DT_FLOAT
    }
  }
  attr {
    key: "value"
    value {
      tensor {
        dtype: DT_FLOAT
        tensor_shape {
          dim {
            size: 32
          }
          dim {
            size: 16
          }
        }
        tensor_content: "…"
      }
    }
  }
}
node {
  name: "oldpi/model/pi_fc1/w/Assign"
  op: "Identity"
  input: "oldpi/model/pi_fc1/w/Initializer/initial_value"
  attr {
    key: "T"
    value {
      type: DT_FLOAT
    }
  }
  attr {
    key: "_class"
    value {
      list {
        s: "loc:@oldpi/model/pi_fc1/w"
      }
    }
  }
}
node {
  name: "oldpi/model/pi_fc1/w/read"
  op: "Identity"
  input: "oldpi/model/pi_fc1/w"
  attr {
    key: "T"
    value {
      type: DT_FLOAT
    }
  }
  attr {
    key: "_class"
    value {
      list {
        s: "loc:@oldpi/model/pi_fc1/w"
      }
    }
  }
}
node {
  name: "oldpi/model/pi_fc1/b/Initializer/Const"
  op: "Const"
  attr {
    key: "_class"
    value {
      list {
        s: "loc:@oldpi/model/pi_fc1/b"
      }
    }
  }
  attr {
    key: "dtype"
    value {
      type: DT_FLOAT
    }
  }
  attr {
    key: "value"
    value {
      tensor {
        dtype: DT_FLOAT
        tensor_shape {
          dim {
            size: 16
          }
        }
        float_val: 0.0
      }
    }
  }
}
node {
  name: "oldpi/model/pi_fc1/b"
  op: "Const"
  attr {
    key: "dtype"
    value {
      type: DT_FLOAT
    }
  }
  attr {
    key: "value"
    value {
      tensor {
        dtype: DT_FLOAT
        tensor_shape {
          dim {
            size: 16
          }
        }
        tensor_content: "…"
      }
    }
  }
}
node {
  name: "oldpi/model/pi_fc1/b/Assign"
  op: "Identity"
  input: "oldpi/model/pi_fc1/b/Initializer/Const"
  attr {
    key: "T"
    value {
      type: DT_FLOAT
    }
  }
  attr {
    key: "_class"
    value {
      list {
        s: "loc:@oldpi/model/pi_fc1/b"
      }
    }
  }
}
node {
  name: "oldpi/model/pi_fc1/b/read"
  op: "Identity"
  input: "oldpi/model/pi_fc1/b"
  attr {
    key: "T"
    value {
      type: DT_FLOAT
    }
  }
  attr {
    key: "_class"
    value {
      list {
        s: "loc:@oldpi/model/pi_fc1/b"
      }
    }
  }
}
node {
  name: "oldpi/model/pi_fc1/MatMul"
  op: "MatMul"
  input: "oldpi/model/Relu"
  input: "oldpi/model/pi_fc1/w/read"
  attr {
    key: "T"
    value {
      type: DT_FLOAT
    }
  }
  attr {
    key: "transpose_a"
    value {
      b: false
    }
  }
  attr {
    key: "transpose_b"
    value {
      b: false
    }
  }
}
node {
  name: "oldpi/model/pi_fc1/add"
  op: "Add"
  input: "oldpi/model/pi_fc1/MatMul"
  input: "oldpi/model/pi_fc1/b/read"
  attr {
    key: "T"
    value {
      type: DT_FLOAT
    }
  }
}
node {
  name: "oldpi/model/Relu_2"
  op: "Relu"
  input: "oldpi/model/pi_fc1/add"
  attr {
    key: "T"
    value {
      type: DT_FLOAT
    }
  }
}
node {
  name: "oldpi/model/vf_fc1/w/Initializer/initial_value"
  op: "Const"
  attr {
    key: "_class"
    value {
      list {
        s: "loc:@oldpi/model/vf_fc1/w"
      }
    }
  }
  attr {
    key: "dtype"
    value {
      type: DT_FLOAT
    }
  }
  attr {
    key: "value"
    value {
      tensor {
        dtype: DT_FLOAT
        tensor_shape {
          dim {
            size: 32
          }
          dim {
            size: 16
          }
        }
        tensor_content: "…"
      }
    }
  }
}
node {
  name: "oldpi/model/vf_fc1/w"
  op: "Const"
  attr {
    key: "dtype"
    value {
      type: DT_FLOAT
    }
  }
  attr {
    key: "value"
    value {
      tensor {
        dtype: DT_FLOAT
        tensor_shape {
          dim {
            size: 32
          }
          dim {
            size: 16
          }
        }
        tensor_content: "…"
      }
    }
  }
}
node {
  name: "oldpi/model/vf_fc1/w/Assign"
  op: "Identity"
  input: "oldpi/model/vf_fc1/w/Initializer/initial_value"
  attr {
    key: "T"
    value {
      type: DT_FLOAT
    }
  }
  attr {
    key: "_class"
    value {
      list {
        s: "loc:@oldpi/model/vf_fc1/w"
      }
    }
  }
}
node {
  name: "oldpi/model/vf_fc1/w/read"
  op: "Identity"
  input: "oldpi/model/vf_fc1/w"
  attr {
    key: "T"
    value {
      type: DT_FLOAT
    }
  }
  attr {
    key: "_class"
    value {
      list {
        s: "loc:@oldpi/model/vf_fc1/w"
      }
    }
  }
}
node {
  name: "oldpi/model/vf_fc1/b/Initializer/Const"
  op: "Const"
  attr {
    key: "_class"
    value {
      list {
        s: "loc:@oldpi/model/vf_fc1/b"
      }
    }
  }
  attr {
    key: "dtype"
    value {
      type: DT_FLOAT
    }
  }
  attr {
    key: "value"
    value {
      tensor {
        dtype: DT_FLOAT
        tensor_shape {
          dim {
            size: 16
          }
        }
        float_val: 0.0
      }
    }
  }
}
node {
  name: "oldpi/model/vf_fc1/b"
  op: "Const"
  attr {
    key: "dtype"
    value {
      type: DT_FLOAT
    }
  }
  attr {
    key: "value"
    value {
      tensor {
        dtype: DT_FLOAT
        tensor_shape {
          dim {
            size: 16
          }
        }
        tensor_content: "…"
      }
    }
  }
}
node {
  name: "oldpi/model/vf_fc1/b/Assign"
  op: "Identity"
  input: "oldpi/model/vf_fc1/b/Initializer/Const"
  attr {
    key: "T"
    value {
      type: DT_FLOAT
    }
  }
  attr {
    key: "_class"
    value {
      list {
        s: "loc:@oldpi/model/vf_fc1/b"
      }
    }
  }
}
node {
  name: "oldpi/model/vf_fc1/b/read"
  op: "Identity"
  input: "oldpi/model/vf_fc1/b"
  attr {
    key: "T"
    value {
      type: DT_FLOAT
    }
  }
  attr {
    key: "_class"
    value {
      list {
        s: "loc:@oldpi/model/vf_fc1/b"
      }
    }
  }
}
node {
  name: "oldpi/model/vf_fc1/MatMul"
  op: "MatMul"
  input: "oldpi/model/Relu_1"
  input: "oldpi/model/vf_fc1/w/read"
  attr {
    key: "T"
    value {
      type: DT_FLOAT
    }
  }
  attr {
    key: "transpose_a"
    value {
      b: false
    }
  }
  attr {
    key: "transpose_b"
    value {
      b: false
    }
  }
}
node {
  name: "oldpi/model/vf_fc1/add"
  op: "Add"
  input: "oldpi/model/vf_fc1/MatMul"
  input: "oldpi/model/vf_fc1/b/read"
  attr {
    key: "T"
    value {
      type: DT_FLOAT
    }
  }
}
node {
  name: "oldpi/model/Relu_3"
  op: "Relu"
  input: "oldpi/model/vf_fc1/add"
  attr {
    key: "T"
    value {
      type: DT_FLOAT
    }
  }
}
node {
  name: "oldpi/model/vf/w/Initializer/initial_value"
  op: "Const"
  attr {
    key: "_class"
    value {
      list {
        s: "loc:@oldpi/model/vf/w"
      }
    }
  }
  attr {
    key: "dtype"
    value {
      type: DT_FLOAT
    }
  }
  attr {
    key: "value"
    value {
      tensor {
        dtype: DT_FLOAT
        tensor_shape {
          dim {
            size: 16
          }
          dim {
            size: 1
          }
        }
        tensor_content: "…"
      }
    }
  }
}
node {
  name: "oldpi/model/vf/w"
  op: "Const"
  attr {
    key: "dtype"
    value {
      type: DT_FLOAT
    }
  }
  attr {
    key: "value"
    value {
      tensor {
        dtype: DT_FLOAT
        tensor_shape {
          dim {
            size: 16
          }
          dim {
            size: 1
          }
        }
        tensor_content: "…"
      }
    }
  }
}
node {
  name: "oldpi/model/vf/w/Assign"
  op: "Identity"
  input: "oldpi/model/vf/w/Initializer/initial_value"
  attr {
    key: "T"
    value {
      type: DT_FLOAT
    }
  }
  attr {
    key: "_class"
    value {
      list {
        s: "loc:@oldpi/model/vf/w"
      }
    }
  }
}
node {
  name: "oldpi/model/vf/w/read"
  op: "Identity"
  input: "oldpi/model/vf/w"
  attr {
    key: "T"
    value {
      type: DT_FLOAT
    }
  }
  attr {
    key: "_class"
    value {
      list {
        s: "loc:@oldpi/model/vf/w"
      }
    }
  }
}
node {
  name: "oldpi/model/vf/b/Initializer/Const"
  op: "Const"
  attr {
    key: "_class"
    value {
      list {
        s: "loc:@oldpi/model/vf/b"
      }
    }
  }
  attr {
    key: "dtype"
    value {
      type: DT_FLOAT
    }
  }
  attr {
    key: "value"
    value {
      tensor {
        dtype: DT_FLOAT
        tensor_shape {
          dim {
            size: 1
          }
        }
        float_val: 0.0
      }
    }
  }
}
node {
  name: "oldpi/model/vf/b"
  op: "Const"
  attr {
    key: "dtype"
    value {
      type: DT_FLOAT
    }
  }
  attr {
    key: "value"
    value {
      tensor {
        dtype: DT_FLOAT
        tensor_shape {
          dim {
            size: 1
          }
        }
        float_val: 1.1866364479064941
      }
    }
  }
}
node {
  name: "oldpi/model/vf/b/Assign"
  op: "Identity"
  input: "oldpi/model/vf/b/Initializer/Const"
  attr {
    key: "T"
    value {
      type: DT_FLOAT
    }
  }
  attr {
    key: "_class"
    value {
      list {
        s: "loc:@oldpi/model/vf/b"
      }
    }
  }
}
node {
  name: "oldpi/model/vf/b/read"
  op: "Identity"
  input: "oldpi/model/vf/b"
  attr {
    key: "T"
    value {
      type: DT_FLOAT
    }
  }
  attr {
    key: "_class"
    value {
      list {
        s: "loc:@oldpi/model/vf/b"
      }
    }
  }
}
node {
  name: "oldpi/model/vf/MatMul"
  op: "MatMul"
  input: "oldpi/model/Relu_3"
  input: "oldpi/model/vf/w/read"
  attr {
    key: "T"
    value {
      type: DT_FLOAT
    }
  }
  attr {
    key: "transpose_a"
    value {
      b: false
    }
  }
  attr {
    key: "transpose_b"
    value {
      b: false
    }
  }
}
node {
  name: "oldpi/model/vf/add"
  op: "Add"
  input: "oldpi/model/vf/MatMul"
  input: "oldpi/model/vf/b/read"
  attr {
    key: "T"
    value {
      type: DT_FLOAT
    }
  }
}
node {
  name: "oldpi/model/pi/w/Initializer/initial_value"
  op: "Const"
  attr {
    key: "_class"
    value {
      list {
        s: "loc:@oldpi/model/pi/w"
      }
    }
  }
  attr {
    key: "dtype"
    value {
      type: DT_FLOAT
    }
  }
  attr {
    key: "value"
    value {
      tensor {
        dtype: DT_FLOAT
        tensor_shape {
          dim {
            size: 16
          }
          dim {
            size: 1
          }
        }
        tensor_content: "…"
      }
    }
  }
}
node {
  name: "oldpi/model/pi/w"
  op: "Const"
  attr {
    key: "dtype"
    value {
      type: DT_FLOAT
    }
  }
  attr {
    key: "value"
    value {
      tensor {
        dtype: DT_FLOAT
        tensor_shape {
          dim {
            size: 16
          }
          dim {
            size: 1
          }
        }
        tensor_content: "…"
      }
    }
  }
}
node {
  name: "oldpi/model/pi/w/Assign"
  op: "Identity"
  input: "oldpi/model/pi/w/Initializer/initial_value"
  attr {
    key: "T"
    value {
      type: DT_FLOAT
    }
  }
  attr {
    key: "_class"
    value {
      list {
        s: "loc:@oldpi/model/pi/w"
      }
    }
  }
}
node {
  name: "oldpi/model/pi/w/read"
  op: "Identity"
  input: "oldpi/model/pi/w"
  attr {
    key: "T"
    value {
      type: DT_FLOAT
    }
  }
  attr {
    key: "_class"
    value {
      list {
        s: "loc:@oldpi/model/pi/w"
      }
    }
  }
}
node {
  name: "oldpi/model/pi/b/Initializer/Const"
  op: "Const"
  attr {
    key: "_class"
    value {
      list {
        s: "loc:@oldpi/model/pi/b"
      }
    }
  }
  attr {
    key: "dtype"
    value {
      type: DT_FLOAT
    }
  }
  attr {
    key: "value"
    value {
      tensor {
        dtype: DT_FLOAT
        tensor_shape {
          dim {
            size: 1
          }
        }
        float_val: 0.0
      }
    }
  }
}
node {
  name: "oldpi/model/pi/b"
  op: "Const"
  attr {
    key: "dtype"
    value {
      type: DT_FLOAT
    }
  }
  attr {
    key: "value"
    value {
      tensor {
        dtype: DT_FLOAT
        tensor_shape {
          dim {
            size: 1
          }
        }
        float_val: 0.3563338816165924
      }
    }
  }
}
node {
  name: "oldpi/model/pi/b/Assign"
  op: "Identity"
  input: "oldpi/model/pi/b/Initializer/Const"
  attr {
    key: "T"
    value {
      type: DT_FLOAT
    }
  }
  attr {
    key: "_class"
    value {
      list {
        s: "loc:@oldpi/model/pi/b"
      }
    }
  }
}
node {
  name: "oldpi/model/pi/b/read"
  op: "Identity"
  input: "oldpi/model/pi/b"
  attr {
    key: "T"
    value {
      type: DT_FLOAT
    }
  }
  attr {
    key: "_class"
    value {
      list {
        s: "loc:@oldpi/model/pi/b"
      }
    }
  }
}
node {
  name: "oldpi/model/pi/MatMul"
  op: "MatMul"
  input: "oldpi/model/Relu_2"
  input: "oldpi/model/pi/w/read"
  attr {
    key: "T"
    value {
      type: DT_FLOAT
    }
  }
  attr {
    key: "transpose_a"
    value {
      b: false
    }
  }
  attr {
    key: "transpose_b"
    value {
      b: false
    }
  }
}
node {
  name: "oldpi/model/pi/add"
  op: "Add"
  input: "oldpi/model/pi/MatMul"
  input: "oldpi/model/pi/b/read"
  attr {
    key: "T"
    value {
      type: DT_FLOAT
    }
  }
}
node {
  name: "oldpi/model/pi/logstd/Initializer/zeros"
  op: "Const"
  attr {
    key: "_class"
    value {
      list {
        s: "loc:@oldpi/model/pi/logstd"
      }
    }
  }
  attr {
    key: "dtype"
    value {
      type: DT_FLOAT
    }
  }
  attr {
    key: "value"
    value {
      tensor {
        dtype: DT_FLOAT
        tensor_shape {
          dim {
            size: 1
          }
          dim {
            size: 1
          }
        }
        float_val: 0.0
      }
    }
  }
}
node {
  name: "oldpi/model/pi/logstd"
  op: "Const"
  attr {
    key: "dtype"
    value {
      type: DT_FLOAT
    }
  }
  attr {
    key: "value"
    value {
      tensor {
        dtype: DT_FLOAT
        tensor_shape {
          dim {
            size: 1
          }
          dim {
            size: 1
          }
        }
        float_val: 0.7535348534584045
      }
    }
  }
}
node {
  name: "oldpi/model/pi/logstd/Assign"
  op: "Identity"
  input: "oldpi/model/pi/logstd/Initializer/zeros"
  attr {
    key: "T"
    value {
      type: DT_FLOAT
    }
  }
  attr {
    key: "_class"
    value {
      list {
        s: "loc:@oldpi/model/pi/logstd"
      }
    }
  }
}
node {
  name: "oldpi/model/pi/logstd/read"
  op: "Identity"
  input: "oldpi/model/pi/logstd"
  attr {
    key: "T"
    value {
      type: DT_FLOAT
    }
  }
  attr {
    key: "_class"
    value {
      list {
        s: "loc:@oldpi/model/pi/logstd"
      }
    }
  }
}
node {
  name: "oldpi/model/mul/y"
  op: "Const"
  attr {
    key: "dtype"
    value {
      type: DT_FLOAT
    }
  }
  attr {
    key: "value"
    value {
      tensor {
        dtype: DT_FLOAT
        tensor_shape {
        }
        float_val: 0.0
      }
    }
  }
}
node {
  name: "oldpi/model/mul"
  op: "Mul"
  input: "oldpi/model/pi/add"
  input: "oldpi/model/mul/y"
  attr {
    key: "T"
    value {
      type: DT_FLOAT
    }
  }
}
node {
  name: "oldpi/model/add"
  op: "Add"
  input: "oldpi/model/mul"
  input: "oldpi/model/pi/logstd/read"
  attr {
    key: "T"
    value {
      type: DT_FLOAT
    }
  }
}
node {
  name: "oldpi/model/concat/axis"
  op: "Const"
  attr {
    key: "dtype"
    value {
      type: DT_INT32
    }
  }
  attr {
    key: "value"
    value {
      tensor {
        dtype: DT_INT32
        tensor_shape {
        }
        int_val: 1
      }
    }
  }
}
node {
  name: "oldpi/model/concat"
  op: "ConcatV2"
  input: "oldpi/model/pi/add"
  input: "oldpi/model/add"
  input: "oldpi/model/concat/axis"
  attr {
    key: "N"
    value {
      i: 2
    }
  }
  attr {
    key: "T"
    value {
      type: DT_FLOAT
    }
  }
  attr {
    key: "Tidx"
    value {
      type: DT_INT32
    }
  }
}
node {
  name: "oldpi/model/q/w/Initializer/initial_value"
  op: "Const"
  attr {
    key: "_class"
    value {
      list {
        s: "loc:@oldpi/model/q/w"
      }
    }
  }
  attr {
    key: "dtype"
    value {
      type: DT_FLOAT
    }
  }
  attr {
    key: "value"
    value {
      tensor {
        dtype: DT_FLOAT
        tensor_shape {
          dim {
            size: 16
          }
          dim {
            size: 1
          }
        }
        tensor_content: "…"
      }
    }
  }
}
node {
  name: "oldpi/model/q/w"
  op: "Const"
  attr {
    key: "dtype"
    value {
      type: DT_FLOAT
    }
  }
  attr {
    key: "value"
    value {
      tensor {
        dtype: DT_FLOAT
        tensor_shape {
          dim {
            size: 16
          }
          dim {
            size: 1
          }
        }
        tensor_content: "…"
      }
    }
  }
}
node {
  name: "oldpi/model/q/w/Assign"
  op: "Identity"
  input: "oldpi/model/q/w/Initializer/initial_value"
  attr {
    key: "T"
    value {
      type: DT_FLOAT
    }
  }
  attr {
    key: "_class"
    value {
      list {
        s: "loc:@oldpi/model/q/w"
      }
    }
  }
}
node {
  name: "oldpi/model/q/w/read"
  op: "Identity"
  input: "oldpi/model/q/w"
  attr {
    key: "T"
    value {
      type: DT_FLOAT
    }
  }
  attr {
    key: "_class"
    value {
      list {
        s: "loc:@oldpi/model/q/w"
      }
    }
  }
}
node {
  name: "oldpi/model/q/b/Initializer/Const"
  op: "Const"
  attr {
    key: "_class"
    value {
      list {
        s: "loc:@oldpi/model/q/b"
      }
    }
  }
  attr {
    key: "dtype"
    value {
      type: DT_FLOAT
    }
  }
  attr {
    key: "value"
    value {
      tensor {
        dtype: DT_FLOAT
        tensor_shape {
          dim {
            size: 1
          }
        }
        float_val: 0.0
      }
    }
  }
}
node {
  name: "oldpi/model/q/b"
  op: "Const"
  attr {
    key: "dtype"
    value {
      type: DT_FLOAT
    }
  }
  attr {
    key: "value"
    value {
      tensor {
        dtype: DT_FLOAT
        tensor_shape {
          dim {
            size: 1
          }
        }
        float_val: 0.0
      }
    }
  }
}
node {
  name: "oldpi/model/q/b/Assign"
  op: "Identity"
  input: "oldpi/model/q/b/Initializer/Const"
  attr {
    key: "T"
    value {
      type: DT_FLOAT
    }
  }
  attr {
    key: "_class"
    value {
      list {
        s: "loc:@oldpi/model/q/b"
      }
    }
  }
}
node {
  name: "oldpi/model/q/b/read"
  op: "Identity"
  input: "oldpi/model/q/b"
  attr {
    key: "T"
    value {
      type: DT_FLOAT
    }
  }
  attr {
    key: "_class"
    value {
      list {
        s: "loc:@oldpi/model/q/b"
      }
    }
  }
}
node {
  name: "oldpi/model/q/MatMul"
  op: "MatMul"
  input: "oldpi/model/Relu_3"
  input: "oldpi/model/q/w/read"
  attr {
    key: "T"
    value {
      type: DT_FLOAT
    }
  }
  attr {
    key: "transpose_a"
    value {
      b: false
    }
  }
  attr {
    key: "transpose_b"
    value {
      b: false
    }
  }
}
node {
  name: "oldpi/model/q/add"
  op: "Add"
  input: "oldpi/model/q/MatMul"
  input: "oldpi/model/q/b/read"
  attr {
    key: "T"
    value {
      type: DT_FLOAT
    }
  }
}
node {
  name: "oldpi/model/Const"
  op: "Const"
  attr {
    key: "dtype"
    value {
      type: DT_INT32
    }
  }
  attr {
    key: "value"
    value {
      tensor {
        dtype: DT_INT32
        tensor_shape {
        }
        int_val: 2
      }
    }
  }
}
node {
  name: "oldpi/model/split/split_dim"
  op: "Const"
  attr {
    key: "dtype"
    value {
      type: DT_INT32
    }
  }
  attr {
    key: "value"
    value {
      tensor {
        dtype: DT_INT32
        tensor_shape {
        }
        int_val: 1
      }
    }
  }
}
node {
  name: "oldpi/model/split"
  op: "Split"
  input: "oldpi/model/split/split_dim"
  input: "oldpi/model/concat"
  attr {
    key: "T"
    value {
      type: DT_FLOAT
    }
  }
  attr {
    key: "num_split"
    value {
      i: 2
    }
  }
}
node {
  name: "oldpi/model/Exp"
  op: "Exp"
  input: "oldpi/model/split:1"
  attr {
    key: "T"
    value {
      type: DT_FLOAT
    }
  }
}
node {
  name: "oldpi/output/Shape"
  op: "Shape"
  input: "oldpi/model/split"
  attr {
    key: "T"
    value {
      type: DT_FLOAT
    }
  }
  attr {
    key: "out_type"
    value {
      type: DT_INT32
    }
  }
}
node {
  name: "oldpi/output/random_normal/mean"
  op: "Const"
  attr {
    key: "dtype"
    value {
      type: DT_FLOAT
    }
  }
  attr {
    key: "value"
    value {
      tensor {
        dtype: DT_FLOAT
        tensor_shape {
        }
        float_val: 0.0
      }
    }
  }
}
node {
  name: "oldpi/output/random_normal/stddev"
  op: "Const"
  attr {
    key: "dtype"
    value {
      type: DT_FLOAT
    }
  }
  attr {
    key: "value"
    value {
      tensor {
        dtype: DT_FLOAT
        tensor_shape {
        }
        float_val: 1.0
      }
    }
  }
}
node {
  name: "oldpi/output/random_normal/RandomStandardNormal"
  op: "RandomStandardNormal"
  input: "oldpi/output/Shape"
  attr {
    key: "T"
    value {
      type: DT_INT32
    }
  }
  attr {
    key: "dtype"
    value {
      type: DT_FLOAT
    }
  }
  attr {
    key: "seed"
    value {
      i: 0
    }
  }
  attr {
    key: "seed2"
    value {
      i: 0
    }
  }
}
node {
  name: "oldpi/output/random_normal/mul"
  op: "Mul"
  input: "oldpi/output/random_normal/RandomStandardNormal"
  input: "oldpi/output/random_normal/stddev"
  attr {
    key: "T"
    value {
      type: DT_FLOAT
    }
  }
}
node {
  name: "oldpi/output/random_normal"
  op: "Add"
  input: "oldpi/output/random_normal/mul"
  input: "oldpi/output/random_normal/mean"
  attr {
    key: "T"
    value {
      type: DT_FLOAT
    }
  }
}
node {
  name: "oldpi/output/mul"
  op: "Mul"
  input: "oldpi/model/Exp"
  input: "oldpi/output/random_normal"
  attr {
    key: "T"
    value {
      type: DT_FLOAT
    }
  }
}
node {
  name: "oldpi/output/add"
  op: "Add"
  input: "oldpi/model/split"
  input: "oldpi/output/mul"
  attr {
    key: "T"
    value {
      type: DT_FLOAT
    }
  }
}
node {
  name: "oldpi/output/sub"
  op: "Sub"
  input: "oldpi/output/add"
  input: "oldpi/model/split"
  attr {
    key: "T"
    value {
      type: DT_FLOAT
    }
  }
}
node {
  name: "oldpi/output/truediv"
  op: "RealDiv"
  input: "oldpi/output/sub"
  input: "oldpi/model/Exp"
  attr {
    key: "T"
    value {
      type: DT_FLOAT
    }
  }
}
node {
  name: "oldpi/output/Square"
  op: "Square"
  input: "oldpi/output/truediv"
  attr {
    key: "T"
    value {
      type: DT_FLOAT
    }
  }
}
node {
  name: "oldpi/output/Sum/reduction_indices"
  op: "Const"
  attr {
    key: "dtype"
    value {
      type: DT_INT32
    }
  }
  attr {
    key: "value"
    value {
      tensor {
        dtype: DT_INT32
        tensor_shape {
        }
        int_val: -1
      }
    }
  }
}
node {
  name: "oldpi/output/Sum"
  op: "Sum"
  input: "oldpi/output/Square"
  input: "oldpi/output/Sum/reduction_indices"
  attr {
    key: "T"
    value {
      type: DT_FLOAT
    }
  }
  attr {
    key: "Tidx"
    value {
      type: DT_INT32
    }
  }
  attr {
    key: "keep_dims"
    value {
      b: false
    }
  }
}
node {
  name: "oldpi/output/mul_1/x"
  op: "Const"
  attr {
    key: "dtype"
    value {
      type: DT_FLOAT
    }
  }
  attr {
    key: "value"
    value {
      tensor {
        dtype: DT_FLOAT
        tensor_shape {
        }
        float_val: 0.5
      }
    }
  }
}
node {
  name: "oldpi/output/mul_1"
  op: "Mul"
  input: "oldpi/output/mul_1/x"
  input: "oldpi/output/Sum"
  attr {
    key: "T"
    value {
      type: DT_FLOAT
    }
  }
}
node {
  name: "oldpi/output/Shape_1"
  op: "Shape"
  input: "oldpi/output/add"
  attr {
    key: "T"
    value {
      type: DT_FLOAT
    }
  }
  attr {
    key: "out_type"
    value {
      type: DT_INT32
    }
  }
}
node {
  name: "oldpi/output/strided_slice/stack"
  op: "Const"
  attr {
    key: "dtype"
    value {
      type: DT_INT32
    }
  }
  attr {
    key: "value"
    value {
      tensor {
        dtype: DT_INT32
        tensor_shape {
          dim {
            size: 1
          }
        }
        int_val: -1
      }
    }
  }
}
node {
  name: "oldpi/output/strided_slice/stack_1"
  op: "Const"
  attr {
    key: "dtype"
    value {
      type: DT_INT32
    }
  }
  attr {
    key: "value"
    value {
      tensor {
        dtype: DT_INT32
        tensor_shape {
          dim {
            size: 1
          }
        }
        int_val: 0
      }
    }
  }
}
node {
  name: "oldpi/output/strided_slice/stack_2"
  op: "Const"
  attr {
    key: "dtype"
    value {
      type: DT_INT32
    }
  }
  attr {
    key: "value"
    value {
      tensor {
        dtype: DT_INT32
        tensor_shape {
          dim {
            size: 1
          }
        }
        int_val: 1
      }
    }
  }
}
node {
  name: "oldpi/output/strided_slice"
  op: "StridedSlice"
  input: "oldpi/output/Shape_1"
  input: "oldpi/output/strided_slice/stack"
  input: "oldpi/output/strided_slice/stack_1"
  input: "oldpi/output/strided_slice/stack_2"
  attr {
    key: "Index"
    value {
      type: DT_INT32
    }
  }
  attr {
    key: "T"
    value {
      type: DT_INT32
    }
  }
  attr {
    key: "begin_mask"
    value {
      i: 0
    }
  }
  attr {
    key: "ellipsis_mask"
    value {
      i: 0
    }
  }
  attr {
    key: "end_mask"
    value {
      i: 0
    }
  }
  attr {
    key: "new_axis_mask"
    value {
      i: 0
    }
  }
  attr {
    key: "shrink_axis_mask"
    value {
      i: 1
    }
  }
}
node {
  name: "oldpi/output/Cast"
  op: "Cast"
  input: "oldpi/output/strided_slice"
  attr {
    key: "DstT"
    value {
      type: DT_FLOAT
    }
  }
  attr {
    key: "SrcT"
    value {
      type: DT_INT32
    }
  }
  attr {
    key: "Truncate"
    value {
      b: false
    }
  }
}
node {
  name: "oldpi/output/mul_2/x"
  op: "Const"
  attr {
    key: "dtype"
    value {
      type: DT_FLOAT
    }
  }
  attr {
    key: "value"
    value {
      tensor {
        dtype: DT_FLOAT
        tensor_shape {
        }
        float_val: 0.9189385175704956
      }
    }
  }
}
node {
  name: "oldpi/output/mul_2"
  op: "Mul"
  input: "oldpi/output/mul_2/x"
  input: "oldpi/output/Cast"
  attr {
    key: "T"
    value {
      type: DT_FLOAT
    }
  }
}
node {
  name: "oldpi/output/add_1"
  op: "Add"
  input: "oldpi/output/mul_1"
  input: "oldpi/output/mul_2"
  attr {
    key: "T"
    value {
      type: DT_FLOAT
    }
  }
}
node {
  name: "oldpi/output/Sum_1/reduction_indices"
  op: "Const"
  attr {
    key: "dtype"
    value {
      type: DT_INT32
    }
  }
  attr {
    key: "value"
    value {
      tensor {
        dtype: DT_INT32
        tensor_shape {
        }
        int_val: -1
      }
    }
  }
}
node {
  name: "oldpi/output/Sum_1"
  op: "Sum"
  input: "oldpi/model/split:1"
  input: "oldpi/output/Sum_1/reduction_indices"
  attr {
    key: "T"
    value {
      type: DT_FLOAT
    }
  }
  attr {
    key: "Tidx"
    value {
      type: DT_INT32
    }
  }
  attr {
    key: "keep_dims"
    value {
      b: false
    }
  }
}
node {
  name: "oldpi/output/add_2"
  op: "Add"
  input: "oldpi/output/add_1"
  input: "oldpi/output/Sum_1"
  attr {
    key: "T"
    value {
      type: DT_FLOAT
    }
  }
}
node {
  name: "oldpi/output/strided_slice_1/stack"
  op: "Const"
  attr {
    key: "dtype"
    value {
      type: DT_INT32
    }
  }
  attr {
    key: "value"
    value {
      tensor {
        dtype: DT_INT32
        tensor_shape {
          dim {
            size: 2
          }
        }
        tensor_content: "\000\000\000\000\000\000\000\000"
      }
    }
  }
}
node {
  name: "oldpi/output/strided_slice_1/stack_1"
  op: "Const"
  attr {
    key: "dtype"
    value {
      type: DT_INT32
    }
  }
  attr {
    key: "value"
    value {
      tensor {
        dtype: DT_INT32
        tensor_shape {
          dim {
            size: 2
          }
        }
        tensor_content: "\000\000\000\000\001\000\000\000"
      }
    }
  }
}
node {
  name: "oldpi/output/strided_slice_1/stack_2"
  op: "Const"
  attr {
    key: "dtype"
    value {
      type: DT_INT32
    }
  }
  attr {
    key: "value"
    value {
      tensor {
        dtype: DT_INT32
        tensor_shape {
          dim {
            size: 2
          }
        }
        tensor_content: "\001\000\000\000\001\000\000\000"
      }
    }
  }
}
node {
  name: "oldpi/output/strided_slice_1"
  op: "StridedSlice"
  input: "oldpi/model/vf/add"
  input: "oldpi/output/strided_slice_1/stack"
  input: "oldpi/output/strided_slice_1/stack_1"
  input: "oldpi/output/strided_slice_1/stack_2"
  attr {
    key: "Index"
    value {
      type: DT_INT32
    }
  }
  attr {
    key: "T"
    value {
      type: DT_FLOAT
    }
  }
  attr {
    key: "begin_mask"
    value {
      i: 1
    }
  }
  attr {
    key: "ellipsis_mask"
    value {
      i: 0
    }
  }
  attr {
    key: "end_mask"
    value {
      i: 1
    }
  }
  attr {
    key: "new_axis_mask"
    value {
      i: 0
    }
  }
  attr {
    key: "shrink_axis_mask"
    value {
      i: 2
    }
  }
}
node {
  name: "loss/Placeholder"
  op: "Placeholder"
  attr {
    key: "dtype"
    value {
      type: DT_FLOAT
    }
  }
  attr {
    key: "shape"
    value {
      shape {
        dim {
          size: -1
        }
      }
    }
  }
}
node {
  name: "loss/Placeholder_1"
  op: "Placeholder"
  attr {
    key: "dtype"
    value {
      type: DT_FLOAT
    }
  }
  attr {
    key: "shape"
    value {
      shape {
        dim {
          size: -1
        }
      }
    }
  }
}
node {
  name: "loss/lrmult"
  op: "Placeholder"
  attr {
    key: "dtype"
    value {
      type: DT_FLOAT
    }
  }
  attr {
    key: "shape"
    value {
      shape {
      }
    }
  }
}
node {
  name: "loss/mul/x"
  op: "Const"
  attr {
    key: "dtype"
    value {
      type: DT_FLOAT
    }
  }
  attr {
    key: "value"
    value {
      tensor {
        dtype: DT_FLOAT
        tensor_shape {
        }
        float_val: 0.20000000298023224
      }
    }
  }
}
node {
  name: "loss/mul"
  op: "Mul"
  input: "loss/mul/x"
  input: "loss/lrmult"
  attr {
    key: "T"
    value {
      type: DT_FLOAT
    }
  }
}
node {
  name: "loss/Placeholder_2"
  op: "Placeholder"
  attr {
    key: "dtype"
    value {
      type: DT_FLOAT
    }
  }
  attr {
    key: "shape"
    value {
      shape {
        dim {
          size: -1
        }
        dim {
          size: 1
        }
      }
    }
  }
}
node {
  name: "loss/sub"
  op: "Sub"
  input: "model/split:1"
  input: "oldpi/model/split:1"
  attr {
    key: "T"
    value {
      type: DT_FLOAT
    }
  }
}
node {
  name: "loss/Square"
  op: "Square"
  input: "oldpi/model/Exp"
  attr {
    key: "T"
    value {
      type: DT_FLOAT
    }
  }
}
node {
  name: "loss/sub_1"
  op: "Sub"
  input: "oldpi/model/split"
  input: "model/split"
  attr {
    key: "T"
    value {
      type: DT_FLOAT
    }
  }
}
node {
  name: "loss/Square_1"
  op: "Square"
  input: "loss/sub_1"
  attr {
    key: "T"
    value {
      type: DT_FLOAT
    }
  }
}
node {
  name: "loss/add"
  op: "Add"
  input: "loss/Square"
  input: "loss/Square_1"
  attr {
    key: "T"
    value {
      type: DT_FLOAT
    }
  }
}
node {
  name: "loss/Square_2"
  op: "Square"
  input: "model/Exp"
  attr {
    key: "T"
    value {
      type: DT_FLOAT
    }
  }
}
node {
  name: "loss/mul_1/x"
  op: "Const"
  attr {
    key: "dtype"
    value {
      type: DT_FLOAT
    }
  }
  attr {
    key: "value"
    value {
      tensor {
        dtype: DT_FLOAT
        tensor_shape {
        }
        float_val: 2.0
      }
    }
  }
}
node {
  name: "loss/mul_1"
  op: "Mul"
  input: "loss/mul_1/x"
  input: "loss/Square_2"
  attr {
    key: "T"
    value {
      type: DT_FLOAT
    }
  }
}
node {
  name: "loss/truediv"
  op: "RealDiv"
  input: "loss/add"
  input: "loss/mul_1"
  attr {
    key: "T"
    value {
      type: DT_FLOAT
    }
  }
}
node {
  name: "loss/add_1"
  op: "Add"
  input: "loss/sub"
  input: "loss/truediv"
  attr {
    key: "T"
    value {
      type: DT_FLOAT
    }
  }
}
node {
  name: "loss/sub_2/y"
  op: "Const"
  attr {
    key: "dtype"
    value {
      type: DT_FLOAT
    }
  }
  attr {
    key: "value"
    value {
      tensor {
        dtype: DT_FLOAT
        tensor_shape {
        }
        float_val: 0.5
      }
    }
  }
}
node {
  name: "loss/sub_2"
  op: "Sub"
  input: "loss/add_1"
  input: "loss/sub_2/y"
  attr {
    key: "T"
    value {
      type: DT_FLOAT
    }
  }
}
node {
  name: "loss/Sum/reduction_indices"
  op: "Const"
  attr {
    key: "dtype"
    value {
      type: DT_INT32
    }
  }
  attr {
    key: "value"
    value {
      tensor {
        dtype: DT_INT32
        tensor_shape {
        }
        int_val: -1
      }
    }
  }
}
node {
  name: "loss/Sum"
  op: "Sum"
  input: "loss/sub_2"
  input: "loss/Sum/reduction_indices"
  attr {
    key: "T"
    value {
      type: DT_FLOAT
    }
  }
  attr {
    key: "Tidx"
    value {
      type: DT_INT32
    }
  }
  attr {
    key: "keep_dims"
    value {
      b: false
    }
  }
}
node {
  name: "loss/add_2/y"
  op: "Const"
  attr {
    key: "dtype"
    value {
      type: DT_FLOAT
    }
  }
  attr {
    key: "value"
    value {
      tensor {
        dtype: DT_FLOAT
        tensor_shape {
        }
        float_val: 1.4189385175704956
      }
    }
  }
}
node {
  name: "loss/add_2"
  op: "Add"
  input: "model/split:1"
  input: "loss/add_2/y"
  attr {
    key: "T"
    value {
      type: DT_FLOAT
    }
  }
}
node {
  name: "loss/Sum_1/reduction_indices"
  op: "Const"
  attr {
    key: "dtype"
    value {
      type: DT_INT32
    }
  }
  attr {
    key: "value"
    value {
      tensor {
        dtype: DT_INT32
        tensor_shape {
        }
        int_val: -1
      }
    }
  }
}
node {
  name: "loss/Sum_1"
  op: "Sum"
  input: "loss/add_2"
  input: "loss/Sum_1/reduction_indices"
  attr {
    key: "T"
    value {
      type: DT_FLOAT
    }
  }
  attr {
    key: "Tidx"
    value {
      type: DT_INT32
    }
  }
  attr {
    key: "keep_dims"
    value {
      b: false
    }
  }
}
node {
  name: "loss/Const"
  op: "Const"
  attr {
    key: "dtype"
    value {
      type: DT_INT32
    }
  }
  attr {
    key: "value"
    value {
      tensor {
        dtype: DT_INT32
        tensor_shape {
          dim {
            size: 1
          }
        }
        int_val: 0
      }
    }
  }
}
node {
  name: "loss/Mean"
  op: "Mean"
  input: "loss/Sum"
  input: "loss/Const"
  attr {
    key: "T"
    value {
      type: DT_FLOAT
    }
  }
  attr {
    key: "Tidx"
    value {
      type: DT_INT32
    }
  }
  attr {
    key: "keep_dims"
    value {
      b: false
    }
  }
}
node {
  name: "loss/Const_1"
  op: "Const"
  attr {
    key: "dtype"
    value {
      type: DT_INT32
    }
  }
  attr {
    key: "value"
    value {
      tensor {
        dtype: DT_INT32
        tensor_shape {
          dim {
            size: 1
          }
        }
        int_val: 0
      }
    }
  }
}
node {
  name: "loss/Mean_1"
  op: "Mean"
  input: "loss/Sum_1"
  input: "loss/Const_1"
  attr {
    key: "T"
    value {
      type: DT_FLOAT
    }
  }
  attr {
    key: "Tidx"
    value {
      type: DT_INT32
    }
  }
  attr {
    key: "keep_dims"
    value {
      b: false
    }
  }
}
node {
  name: "loss/mul_2/x"
  op: "Const"
  attr {
    key: "dtype"
    value {
      type: DT_FLOAT
    }
  }
  attr {
    key: "value"
    value {
      tensor {
        dtype: DT_FLOAT
        tensor_shape {
        }
        float_val: -0.009999999776482582
      }
    }
  }
}
node {
  name: "loss/mul_2"
  op: "Mul"
  input: "loss/mul_2/x"
  input: "loss/Mean_1"
  attr {
    key: "T"
    value {
      type: DT_FLOAT
    }
  }
}
node {
  name: "loss/sub_3"
  op: "Sub"
  input: "loss/Placeholder_2"
  input: "model/split"
  attr {
    key: "T"
    value {
      type: DT_FLOAT
    }
  }
}
node {
  name: "loss/truediv_1"
  op: "RealDiv"
  input: "loss/sub_3"
  input: "model/Exp"
  attr {
    key: "T"
    value {
      type: DT_FLOAT
    }
  }
}
node {
  name: "loss/Square_3"
  op: "Square"
  input: "loss/truediv_1"
  attr {
    key: "T"
    value {
      type: DT_FLOAT
    }
  }
}
node {
  name: "loss/Sum_2/reduction_indices"
  op: "Const"
  attr {
    key: "dtype"
    value {
      type: DT_INT32
    }
  }
  attr {
    key: "value"
    value {
      tensor {
        dtype: DT_INT32
        tensor_shape {
        }
        int_val: -1
      }
    }
  }
}
node {
  name: "loss/Sum_2"
  op: "Sum"
  input: "loss/Square_3"
  input: "loss/Sum_2/reduction_indices"
  attr {
    key: "T"
    value {
      type: DT_FLOAT
    }
  }
  attr {
    key: "Tidx"
    value {
      type: DT_INT32
    }
  }
  attr {
    key: "keep_dims"
    value {
      b: false
    }
  }
}
node {
  name: "loss/mul_3/x"
  op: "Const"
  attr {
    key: "dtype"
    value {
      type: DT_FLOAT
    }
  }
  attr {
    key: "value"
    value {
      tensor {
        dtype: DT_FLOAT
        tensor_shape {
        }
        float_val: 0.5
      }
    }
  }
}
node {
  name: "loss/mul_3"
  op: "Mul"
  input: "loss/mul_3/x"
  input: "loss/Sum_2"
  attr {
    key: "T"
    value {
      type: DT_FLOAT
    }
  }
}
node {
  name: "loss/Shape"
  op: "Shape"
  input: "loss/Placeholder_2"
  attr {
    key: "T"
    value {
      type: DT_FLOAT
    }
  }
  attr {
    key: "out_type"
    value {
      type: DT_INT32
    }
  }
}
node {
  name: "loss/strided_slice/stack"
  op: "Const"
  attr {
    key: "dtype"
    value {
      type: DT_INT32
    }
  }
  attr {
    key: "value"
    value {
      tensor {
        dtype: DT_INT32
        tensor_shape {
          dim {
            size: 1
          }
        }
        int_val: -1
      }
    }
  }
}
node {
  name: "loss/strided_slice/stack_1"
  op: "Const"
  attr {
    key: "dtype"
    value {
      type: DT_INT32
    }
  }
  attr {
    key: "value"
    value {
      tensor {
        dtype: DT_INT32
        tensor_shape {
          dim {
            size: 1
          }
        }
        int_val: 0
      }
    }
  }
}
node {
  name: "loss/strided_slice/stack_2"
  op: "Const"
  attr {
    key: "dtype"
    value {
      type: DT_INT32
    }
  }
  attr {
    key: "value"
    value {
      tensor {
        dtype: DT_INT32
        tensor_shape {
          dim {
            size: 1
          }
        }
        int_val: 1
      }
    }
  }
}
node {
  name: "loss/strided_slice"
  op: "StridedSlice"
  input: "loss/Shape"
  input: "loss/strided_slice/stack"
  input: "loss/strided_slice/stack_1"
  input: "loss/strided_slice/stack_2"
  attr {
    key: "Index"
    value {
      type: DT_INT32
    }
  }
  attr {
    key: "T"
    value {
      type: DT_INT32
    }
  }
  attr {
    key: "begin_mask"
    value {
      i: 0
    }
  }
  attr {
    key: "ellipsis_mask"
    value {
      i: 0
    }
  }
  attr {
    key: "end_mask"
    value {
      i: 0
    }
  }
  attr {
    key: "new_axis_mask"
    value {
      i: 0
    }
  }
  attr {
    key: "shrink_axis_mask"
    value {
      i: 1
    }
  }
}
node {
  name: "loss/Cast"
  op: "Cast"
  input: "loss/strided_slice"
  attr {
    key: "DstT"
    value {
      type: DT_FLOAT
    }
  }
  attr {
    key: "SrcT"
    value {
      type: DT_INT32
    }
  }
  attr {
    key: "Truncate"
    value {
      b: false
    }
  }
}
node {
  name: "loss/mul_4/x"
  op: "Const"
  attr {
    key: "dtype"
    value {
      type: DT_FLOAT
    }
  }
  attr {
    key: "value"
    value {
      tensor {
        dtype: DT_FLOAT
        tensor_shape {
        }
        float_val: 0.9189385175704956
      }
    }
  }
}
node {
  name: "loss/mul_4"
  op: "Mul"
  input: "loss/mul_4/x"
  input: "loss/Cast"
  attr {
    key: "T"
    value {
      type: DT_FLOAT
    }
  }
}
node {
  name: "loss/add_3"
  op: "Add"
  input: "loss/mul_3"
  input: "loss/mul_4"
  attr {
    key: "T"
    value {
      type: DT_FLOAT
    }
  }
}
node {
  name: "loss/Sum_3/reduction_indices"
  op: "Const"
  attr {
    key: "dtype"
    value {
      type: DT_INT32
    }
  }
  attr {
    key: "value"
    value {
      tensor {
        dtype: DT_INT32
        tensor_shape {
        }
        int_val: -1
      }
    }
  }
}
node {
  name: "loss/Sum_3"
  op: "Sum"
  input: "model/split:1"
  input: "loss/Sum_3/reduction_indices"
  attr {
    key: "T"
    value {
      type: DT_FLOAT
    }
  }
  attr {
    key: "Tidx"
    value {
      type: DT_INT32
    }
  }
  attr {
    key: "keep_dims"
    value {
      b: false
    }
  }
}
node {
  name: "loss/add_4"
  op: "Add"
  input: "loss/add_3"
  input: "loss/Sum_3"
  attr {
    key: "T"
    value {
      type: DT_FLOAT
    }
  }
}
node {
  name: "loss/Neg"
  op: "Neg"
  input: "loss/add_4"
  attr {
    key: "T"
    value {
      type: DT_FLOAT
    }
  }
}
node {
  name: "loss/sub_4"
  op: "Sub"
  input: "loss/Placeholder_2"
  input: "oldpi/model/split"
  attr {
    key: "T"
    value {
      type: DT_FLOAT
    }
  }
}
node {
  name: "loss/truediv_2"
  op: "RealDiv"
  input: "loss/sub_4"
  input: "oldpi/model/Exp"
  attr {
    key: "T"
    value {
      type: DT_FLOAT
    }
  }
}
node {
  name: "loss/Square_4"
  op: "Square"
  input: "loss/truediv_2"
  attr {
    key: "T"
    value {
      type: DT_FLOAT
    }
  }
}
node {
  name: "loss/Sum_4/reduction_indices"
  op: "Const"
  attr {
    key: "dtype"
    value {
      type: DT_INT32
    }
  }
  attr {
    key: "value"
    value {
      tensor {
        dtype: DT_INT32
        tensor_shape {
        }
        int_val: -1
      }
    }
  }
}
node {
  name: "loss/Sum_4"
  op: "Sum"
  input: "loss/Square_4"
  input: "loss/Sum_4/reduction_indices"
  attr {
    key: "T"
    value {
      type: DT_FLOAT
    }
  }
  attr {
    key: "Tidx"
    value {
      type: DT_INT32
    }
  }
  attr {
    key: "keep_dims"
    value {
      b: false
    }
  }
}
node {
  name: "loss/mul_5/x"
  op: "Const"
  attr {
    key: "dtype"
    value {
      type: DT_FLOAT
    }
  }
  attr {
    key: "value"
    value {
      tensor {
        dtype: DT_FLOAT
        tensor_shape {
        }
        float_val: 0.5
      }
    }
  }
}
node {
  name: "loss/mul_5"
  op: "Mul"
  input: "loss/mul_5/x"
  input: "loss/Sum_4"
  attr {
    key: "T"
    value {
      type: DT_FLOAT
    }
  }
}
node {
  name: "loss/Shape_1"
  op: "Shape"
  input: "loss/Placeholder_2"
  attr {
    key: "T"
    value {
      type: DT_FLOAT
    }
  }
  attr {
    key: "out_type"
    value {
      type: DT_INT32
    }
  }
}
node {
  name: "loss/strided_slice_1/stack"
  op: "Const"
  attr {
    key: "dtype"
    value {
      type: DT_INT32
    }
  }
  attr {
    key: "value"
    value {
      tensor {
        dtype: DT_INT32
        tensor_shape {
          dim {
            size: 1
          }
        }
        int_val: -1
      }
    }
  }
}
node {
  name: "loss/strided_slice_1/stack_1"
  op: "Const"
  attr {
    key: "dtype"
    value {
      type: DT_INT32
    }
  }
  attr {
    key: "value"
    value {
      tensor {
        dtype: DT_INT32
        tensor_shape {
          dim {
            size: 1
          }
        }
        int_val: 0
      }
    }
  }
}
node {
  name: "loss/strided_slice_1/stack_2"
  op: "Const"
  attr {
    key: "dtype"
    value {
      type: DT_INT32
    }
  }
  attr {
    key: "value"
    value {
      tensor {
        dtype: DT_INT32
        tensor_shape {
          dim {
            size: 1
          }
        }
        int_val: 1
      }
    }
  }
}
node {
  name: "loss/strided_slice_1"
  op: "StridedSlice"
  input: "loss/Shape_1"
  input: "loss/strided_slice_1/stack"
  input: "loss/strided_slice_1/stack_1"
  input: "loss/strided_slice_1/stack_2"
  attr {
    key: "Index"
    value {
      type: DT_INT32
    }
  }
  attr {
    key: "T"
    value {
      type: DT_INT32
    }
  }
  attr {
    key: "begin_mask"
    value {
      i: 0
    }
  }
  attr {
    key: "ellipsis_mask"
    value {
      i: 0
    }
  }
  attr {
    key: "end_mask"
    value {
      i: 0
    }
  }
  attr {
    key: "new_axis_mask"
    value {
      i: 0
    }
  }
  attr {
    key: "shrink_axis_mask"
    value {
      i: 1
    }
  }
}
node {
  name: "loss/Cast_1"
  op: "Cast"
  input: "loss/strided_slice_1"
  attr {
    key: "DstT"
    value {
      type: DT_FLOAT
    }
  }
  attr {
    key: "SrcT"
    value {
      type: DT_INT32
    }
  }
  attr {
    key: "Truncate"
    value {
      b: false
    }
  }
}
node {
  name: "loss/mul_6/x"
  op: "Const"
  attr {
    key: "dtype"
    value {
      type: DT_FLOAT
    }
  }
  attr {
    key: "value"
    value {
      tensor {
        dtype: DT_FLOAT
        tensor_shape {
        }
        float_val: 0.9189385175704956
      }
    }
  }
}
node {
  name: "loss/mul_6"
  op: "Mul"
  input: "loss/mul_6/x"
  input: "loss/Cast_1"
  attr {
    key: "T"
    value {
      type: DT_FLOAT
    }
  }
}
node {
  name: "loss/add_5"
  op: "Add"
  input: "loss/mul_5"
  input: "loss/mul_6"
  attr {
    key: "T"
    value {
      type: DT_FLOAT
    }
  }
}
node {
  name: "loss/Sum_5/reduction_indices"
  op: "Const"
  attr {
    key: "dtype"
    value {
      type: DT_INT32
    }
  }
  attr {
    key: "value"
    value {
      tensor {
        dtype: DT_INT32
        tensor_shape {
        }
        int_val: -1
      }
    }
  }
}
node {
  name: "loss/Sum_5"
  op: "Sum"
  input: "oldpi/model/split:1"
  input: "loss/Sum_5/reduction_indices"
  attr {
    key: "T"
    value {
      type: DT_FLOAT
    }
  }
  attr {
    key: "Tidx"
    value {
      type: DT_INT32
    }
  }
  attr {
    key: "keep_dims"
    value {
      b: false
    }
  }
}
node {
  name: "loss/add_6"
  op: "Add"
  input: "loss/add_5"
  input: "loss/Sum_5"
  attr {
    key: "T"
    value {
      type: DT_FLOAT
    }
  }
}
node {
  name: "loss/Neg_1"
  op: "Neg"
  input: "loss/add_6"
  attr {
    key: "T"
    value {
      type: DT_FLOAT
    }
  }
}
node {
  name: "loss/sub_5"
  op: "Sub"
  input: "loss/Neg"
  input: "loss/Neg_1"
  attr {
    key: "T"
    value {
      type: DT_FLOAT
    }
  }
}
node {
  name: "loss/Exp"
  op: "Exp"
  input: "loss/sub_5"
  attr {
    key: "T"
    value {
      type: DT_FLOAT
    }
  }
}
node {
  name: "loss/mul_7"
  op: "Mul"
  input: "loss/Exp"
  input: "loss/Placeholder"
  attr {
    key: "T"
    value {
      type: DT_FLOAT
    }
  }
}
node {
  name: "loss/sub_6/x"
  op: "Const"
  attr {
    key: "dtype"
    value {
      type: DT_FLOAT
    }
  }
  attr {
    key: "value"
    value {
      tensor {
        dtype: DT_FLOAT
        tensor_shape {
        }
        float_val: 1.0
      }
    }
  }
}
node {
  name: "loss/sub_6"
  op: "Sub"
  input: "loss/sub_6/x"
  input: "loss/mul"
  attr {
    key: "T"
    value {
      type: DT_FLOAT
    }
  }
}
node {
  name: "loss/add_7/x"
  op: "Const"
  attr {
    key: "dtype"
    value {
      type: DT_FLOAT
    }
  }
  attr {
    key: "value"
    value {
      tensor {
        dtype: DT_FLOAT
        tensor_shape {
        }
        float_val: 1.0
      }
    }
  }
}
node {
  name: "loss/add_7"
  op: "Add"
  input: "loss/add_7/x"
  input: "loss/mul"
  attr {
    key: "T"
    value {
      type: DT_FLOAT
    }
  }
}
node {
  name: "loss/clip_by_value/Minimum"
  op: "Minimum"
  input: "loss/Exp"
  input: "loss/add_7"
  attr {
    key: "T"
    value {
      type: DT_FLOAT
    }
  }
}
node {
  name: "loss/clip_by_value"
  op: "Maximum"
  input: "loss/clip_by_value/Minimum"
  input: "loss/sub_6"
  attr {
    key: "T"
    value {
      type: DT_FLOAT
    }
  }
}
node {
  name: "loss/mul_8"
  op: "Mul"
  input: "loss/clip_by_value"
  input: "loss/Placeholder"
  attr {
    key: "T"
    value {
      type: DT_FLOAT
    }
  }
}
node {
  name: "loss/Minimum"
  op: "Minimum"
  input: "loss/mul_7"
  input: "loss/mul_8"
  attr {
    key: "T"
    value {
      type: DT_FLOAT
    }
  }
}
node {
  name: "loss/Const_2"
  op: "Const"
  attr {
    key: "dtype"
    value {
      type: DT_INT32
    }
  }
  attr {
    key: "value"
    value {
      tensor {
        dtype: DT_INT32
        tensor_shape {
          dim {
            size: 1
          }
        }
        int_val: 0
      }
    }
  }
}
node {
  name: "loss/Mean_2"
  op: "Mean"
  input: "loss/Minimum"
  input: "loss/Const_2"
  attr {
    key: "T"
    value {
      type: DT_FLOAT
    }
  }
  attr {
    key: "Tidx"
    value {
      type: DT_INT32
    }
  }
  attr {
    key: "keep_dims"
    value {
      b: false
    }
  }
}
node {
  name: "loss/Neg_2"
  op: "Neg"
  input: "loss/Mean_2"
  attr {
    key: "T"
    value {
      type: DT_FLOAT
    }
  }
}
node {
  name: "loss/sub_7"
  op: "Sub"
  input: "output/strided_slice_1"
  input: "loss/Placeholder_1"
  attr {
    key: "T"
    value {
      type: DT_FLOAT
    }
  }
}
node {
  name: "loss/Square_5"
  op: "Square"
  input: "loss/sub_7"
  attr {
    key: "T"
    value {
      type: DT_FLOAT
    }
  }
}
node {
  name: "loss/Const_3"
  op: "Const"
  attr {
    key: "dtype"
    value {
      type: DT_INT32
    }
  }
  attr {
    key: "value"
    value {
      tensor {
        dtype: DT_INT32
        tensor_shape {
          dim {
            size: 1
          }
        }
        int_val: 0
      }
    }
  }
}
node {
  name: "loss/Mean_3"
  op: "Mean"
  input: "loss/Square_5"
  input: "loss/Const_3"
  attr {
    key: "T"
    value {
      type: DT_FLOAT
    }
  }
  attr {
    key: "Tidx"
    value {
      type: DT_INT32
    }
  }
  attr {
    key: "keep_dims"
    value {
      b: false
    }
  }
}
node {
  name: "loss/add_8"
  op: "Add"
  input: "loss/Neg_2"
  input: "loss/mul_2"
  attr {
    key: "T"
    value {
      type: DT_FLOAT
    }
  }
}
node {
  name: "loss/add_9"
  op: "Add"
  input: "loss/add_8"
  input: "loss/Mean_3"
  attr {
    key: "T"
    value {
      type: DT_FLOAT
    }
  }
}
node {
  name: "loss/entropy_loss/tags"
  op: "Const"
  attr {
    key: "dtype"
    value {
      type: DT_STRING
    }
  }
  attr {
    key: "value"
    value {
      tensor {
        dtype: DT_STRING
        tensor_shape {
        }
        string_val: "loss/entropy_loss"
      }
    }
  }
}
node {
  name: "loss/entropy_loss"
  op: "ScalarSummary"
  input: "loss/entropy_loss/tags"
  input: "loss/mul_2"
  attr {
    key: "T"
    value {
      type: DT_FLOAT
    }
  }
}
node {
  name: "loss/policy_gradient_loss/tags"
  op: "Const"
  attr {
    key: "dtype"
    value {
      type: DT_STRING
    }
  }
  attr {
    key: "value"
    value {
      tensor {
        dtype: DT_STRING
        tensor_shape {
        }
        string_val: "loss/policy_gradient_loss"
      }
    }
  }
}
node {
  name: "loss/policy_gradient_loss"
  op: "ScalarSummary"
  input: "loss/policy_gradient_loss/tags"
  input: "loss/Neg_2"
  attr {
    key: "T"
    value {
      type: DT_FLOAT
    }
  }
}
node {
  name: "loss/value_function_loss/tags"
  op: "Const"
  attr {
    key: "dtype"
    value {
      type: DT_STRING
    }
  }
  attr {
    key: "value"
    value {
      tensor {
        dtype: DT_STRING
        tensor_shape {
        }
        string_val: "loss/value_function_loss"
      }
    }
  }
}
node {
  name: "loss/value_function_loss"
  op: "ScalarSummary"
  input: "loss/value_function_loss/tags"
  input: "loss/Mean_3"
  attr {
    key: "T"
    value {
      type: DT_FLOAT
    }
  }
}
node {
  name: "loss/approximate_kullback-leibler/tags"
  op: "Const"
  attr {
    key: "dtype"
    value {
      type: DT_STRING
    }
  }
  attr {
    key: "value"
    value {
      tensor {
        dtype: DT_STRING
        tensor_shape {
        }
        string_val: "loss/approximate_kullback-leibler"
      }
    }
  }
}
node {
  name: "loss/approximate_kullback-leibler"
  op: "ScalarSummary"
  input: "loss/approximate_kullback-leibler/tags"
  input: "loss/Mean"
  attr {
    key: "T"
    value {
      type: DT_FLOAT
    }
  }
}
node {
  name: "loss/clip_factor/tags"
  op: "Const"
  attr {
    key: "dtype"
    value {
      type: DT_STRING
    }
  }
  attr {
    key: "value"
    value {
      tensor {
        dtype: DT_STRING
        tensor_shape {
        }
        string_val: "loss/clip_factor"
      }
    }
  }
}
node {
  name: "loss/clip_factor"
  op: "ScalarSummary"
  input: "loss/clip_factor/tags"
  input: "loss/mul"
  attr {
    key: "T"
    value {
      type: DT_FLOAT
    }
  }
}
node {
  name: "loss/loss/tags"
  op: "Const"
  attr {
    key: "dtype"
    value {
      type: DT_STRING
    }
  }
  attr {
    key: "value"
    value {
      tensor {
        dtype: DT_STRING
        tensor_shape {
        }
        string_val: "loss/loss"
      }
    }
  }
}
node {
  name: "loss/loss"
  op: "ScalarSummary"
  input: "loss/loss/tags"
  input: "loss/add_9"
  attr {
    key: "T"
    value {
      type: DT_FLOAT
    }
  }
}
node {
  name: "loss/Assign"
  op: "Identity"
  input: "model/pi_fc0/w/read"
  attr {
    key: "T"
    value {
      type: DT_FLOAT
    }
  }
  attr {
    key: "_class"
    value {
      list {
        s: "loc:@oldpi/model/pi_fc0/w"
      }
    }
  }
}
node {
  name: "loss/Assign_1"
  op: "Identity"
  input: "model/pi_fc0/b/read"
  attr {
    key: "T"
    value {
      type: DT_FLOAT
    }
  }
  attr {
    key: "_class"
    value {
      list {
        s: "loc:@oldpi/model/pi_fc0/b"
      }
    }
  }
}
node {
  name: "loss/Assign_2"
  op: "Identity"
  input: "model/vf_fc0/w/read"
  attr {
    key: "T"
    value {
      type: DT_FLOAT
    }
  }
  attr {
    key: "_class"
    value {
      list {
        s: "loc:@oldpi/model/vf_fc0/w"
      }
    }
  }
}
node {
  name: "loss/Assign_3"
  op: "Identity"
  input: "model/vf_fc0/b/read"
  attr {
    key: "T"
    value {
      type: DT_FLOAT
    }
  }
  attr {
    key: "_class"
    value {
      list {
        s: "loc:@oldpi/model/vf_fc0/b"
      }
    }
  }
}
node {
  name: "loss/Assign_4"
  op: "Identity"
  input: "model/pi_fc1/w/read"
  attr {
    key: "T"
    value {
      type: DT_FLOAT
    }
  }
  attr {
    key: "_class"
    value {
      list {
        s: "loc:@oldpi/model/pi_fc1/w"
      }
    }
  }
}
node {
  name: "loss/Assign_5"
  op: "Identity"
  input: "model/pi_fc1/b/read"
  attr {
    key: "T"
    value {
      type: DT_FLOAT
    }
  }
  attr {
    key: "_class"
    value {
      list {
        s: "loc:@oldpi/model/pi_fc1/b"
      }
    }
  }
}
node {
  name: "loss/Assign_6"
  op: "Identity"
  input: "model/vf_fc1/w/read"
  attr {
    key: "T"
    value {
      type: DT_FLOAT
    }
  }
  attr {
    key: "_class"
    value {
      list {
        s: "loc:@oldpi/model/vf_fc1/w"
      }
    }
  }
}
node {
  name: "loss/Assign_7"
  op: "Identity"
  input: "model/vf_fc1/b/read"
  attr {
    key: "T"
    value {
      type: DT_FLOAT
    }
  }
  attr {
    key: "_class"
    value {
      list {
        s: "loc:@oldpi/model/vf_fc1/b"
      }
    }
  }
}
node {
  name: "loss/Assign_8"
  op: "Identity"
  input: "model/vf/w/read"
  attr {
    key: "T"
    value {
      type: DT_FLOAT
    }
  }
  attr {
    key: "_class"
    value {
      list {
        s: "loc:@oldpi/model/vf/w"
      }
    }
  }
}
node {
  name: "loss/Assign_9"
  op: "Identity"
  input: "model/vf/b/read"
  attr {
    key: "T"
    value {
      type: DT_FLOAT
    }
  }
  attr {
    key: "_class"
    value {
      list {
        s: "loc:@oldpi/model/vf/b"
      }
    }
  }
}
node {
  name: "loss/Assign_10"
  op: "Identity"
  input: "model/pi/w/read"
  attr {
    key: "T"
    value {
      type: DT_FLOAT
    }
  }
  attr {
    key: "_class"
    value {
      list {
        s: "loc:@oldpi/model/pi/w"
      }
    }
  }
}
node {
  name: "loss/Assign_11"
  op: "Identity"
  input: "model/pi/b/read"
  attr {
    key: "T"
    value {
      type: DT_FLOAT
    }
  }
  attr {
    key: "_class"
    value {
      list {
        s: "loc:@oldpi/model/pi/b"
      }
    }
  }
}
node {
  name: "loss/Assign_12"
  op: "Identity"
  input: "model/pi/logstd/read"
  attr {
    key: "T"
    value {
      type: DT_FLOAT
    }
  }
  attr {
    key: "_class"
    value {
      list {
        s: "loc:@oldpi/model/pi/logstd"
      }
    }
  }
}
node {
  name: "loss/Assign_13"
  op: "Identity"
  input: "model/q/w/read"
  attr {
    key: "T"
    value {
      type: DT_FLOAT
    }
  }
  attr {
    key: "_class"
    value {
      list {
        s: "loc:@oldpi/model/q/w"
      }
    }
  }
}
node {
  name: "loss/Assign_14"
  op: "Identity"
  input: "model/q/b/read"
  attr {
    key: "T"
    value {
      type: DT_FLOAT
    }
  }
  attr {
    key: "_class"
    value {
      list {
        s: "loc:@oldpi/model/q/b"
      }
    }
  }
}
node {
  name: "loss/group_deps"
  op: "NoOp"
  input: "^loss/Assign"
  input: "^loss/Assign_1"
  input: "^loss/Assign_10"
  input: "^loss/Assign_11"
  input: "^loss/Assign_12"
  input: "^loss/Assign_13"
  input: "^loss/Assign_14"
  input: "^loss/Assign_2"
  input: "^loss/Assign_3"
  input: "^loss/Assign_4"
  input: "^loss/Assign_5"
  input: "^loss/Assign_6"
  input: "^loss/Assign_7"
  input: "^loss/Assign_8"
  input: "^loss/Assign_9"
}
node {
  name: "Adam_mpi/Placeholder"
  op: "Placeholder"
  attr {
    key: "dtype"
    value {
      type: DT_FLOAT
    }
  }
  attr {
    key: "shape"
    value {
      shape {
        dim {
          size: 3092
        }
      }
    }
  }
}
node {
  name: "Adam_mpi/strided_slice/stack"
  op: "Const"
  attr {
    key: "dtype"
    value {
      type: DT_INT32
    }
  }
  attr {
    key: "value"
    value {
      tensor {
        dtype: DT_INT32
        tensor_shape {
          dim {
            size: 1
          }
        }
        int_val: 0
      }
    }
  }
}
node {
  name: "Adam_mpi/strided_slice/stack_1"
  op: "Const"
  attr {
    key: "dtype"
    value {
      type: DT_INT32
    }
  }
  attr {
    key: "value"
    value {
      tensor {
        dtype: DT_INT32
        tensor_shape {
          dim {
            size: 1
          }
        }
        int_val: 960
      }
    }
  }
}
node {
  name: "Adam_mpi/strided_slice/stack_2"
  op: "Const"
  attr {
    key: "dtype"
    value {
      type: DT_INT32
    }
  }
  attr {
    key: "value"
    value {
      tensor {
        dtype: DT_INT32
        tensor_shape {
          dim {
            size: 1
          }
        }
        int_val: 1
      }
    }
  }
}
node {
  name: "Adam_mpi/strided_slice"
  op: "StridedSlice"
  input: "Adam_mpi/Placeholder"
  input: "Adam_mpi/strided_slice/stack"
  input: "Adam_mpi/strided_slice/stack_1"
  input: "Adam_mpi/strided_slice/stack_2"
  attr {
    key: "Index"
    value {
      type: DT_INT32
    }
  }
  attr {
    key: "T"
    value {
      type: DT_FLOAT
    }
  }
  attr {
    key: "begin_mask"
    value {
      i: 0
    }
  }
  attr {
    key: "ellipsis_mask"
    value {
      i: 0
    }
  }
  attr {
    key: "end_mask"
    value {
      i: 0
    }
  }
  attr {
    key: "new_axis_mask"
    value {
      i: 0
    }
  }
  attr {
    key: "shrink_axis_mask"
    value {
      i: 0
    }
  }
}
node {
  name: "Adam_mpi/Reshape/shape"
  op: "Const"
  attr {
    key: "dtype"
    value {
      type: DT_INT32
    }
  }
  attr {
    key: "value"
    value {
      tensor {
        dtype: DT_INT32
        tensor_shape {
          dim {
            size: 2
          }
        }
        tensor_content: "\036\000\000\000 \000\000\000"
      }
    }
  }
}
node {
  name: "Adam_mpi/Reshape"
  op: "Reshape"
  input: "Adam_mpi/strided_slice"
  input: "Adam_mpi/Reshape/shape"
  attr {
    key: "T"
    value {
      type: DT_FLOAT
    }
  }
  attr {
    key: "Tshape"
    value {
      type: DT_INT32
    }
  }
}
node {
  name: "Adam_mpi/Assign"
  op: "Identity"
  input: "Adam_mpi/Reshape"
  attr {
    key: "T"
    value {
      type: DT_FLOAT
    }
  }
  attr {
    key: "_class"
    value {
      list {
        s: "loc:@model/pi_fc0/w"
      }
    }
  }
}
node {
  name: "Adam_mpi/strided_slice_1/stack"
  op: "Const"
  attr {
    key: "dtype"
    value {
      type: DT_INT32
    }
  }
  attr {
    key: "value"
    value {
      tensor {
        dtype: DT_INT32
        tensor_shape {
          dim {
            size: 1
          }
        }
        int_val: 960
      }
    }
  }
}
node {
  name: "Adam_mpi/strided_slice_1/stack_1"
  op: "Const"
  attr {
    key: "dtype"
    value {
      type: DT_INT32
    }
  }
  attr {
    key: "value"
    value {
      tensor {
        dtype: DT_INT32
        tensor_shape {
          dim {
            size: 1
          }
        }
        int_val: 992
      }
    }
  }
}
node {
  name: "Adam_mpi/strided_slice_1/stack_2"
  op: "Const"
  attr {
    key: "dtype"
    value {
      type: DT_INT32
    }
  }
  attr {
    key: "value"
    value {
      tensor {
        dtype: DT_INT32
        tensor_shape {
          dim {
            size: 1
          }
        }
        int_val: 1
      }
    }
  }
}
node {
  name: "Adam_mpi/strided_slice_1"
  op: "StridedSlice"
  input: "Adam_mpi/Placeholder"
  input: "Adam_mpi/strided_slice_1/stack"
  input: "Adam_mpi/strided_slice_1/stack_1"
  input: "Adam_mpi/strided_slice_1/stack_2"
  attr {
    key: "Index"
    value {
      type: DT_INT32
    }
  }
  attr {
    key: "T"
    value {
      type: DT_FLOAT
    }
  }
  attr {
    key: "begin_mask"
    value {
      i: 0
    }
  }
  attr {
    key: "ellipsis_mask"
    value {
      i: 0
    }
  }
  attr {
    key: "end_mask"
    value {
      i: 0
    }
  }
  attr {
    key: "new_axis_mask"
    value {
      i: 0
    }
  }
  attr {
    key: "shrink_axis_mask"
    value {
      i: 0
    }
  }
}
node {
  name: "Adam_mpi/Reshape_1/shape"
  op: "Const"
  attr {
    key: "dtype"
    value {
      type: DT_INT32
    }
  }
  attr {
    key: "value"
    value {
      tensor {
        dtype: DT_INT32
        tensor_shape {
          dim {
            size: 1
          }
        }
        int_val: 32
      }
    }
  }
}
node {
  name: "Adam_mpi/Reshape_1"
  op: "Reshape"
  input: "Adam_mpi/strided_slice_1"
  input: "Adam_mpi/Reshape_1/shape"
  attr {
    key: "T"
    value {
      type: DT_FLOAT
    }
  }
  attr {
    key: "Tshape"
    value {
      type: DT_INT32
    }
  }
}
node {
  name: "Adam_mpi/Assign_1"
  op: "Identity"
  input: "Adam_mpi/Reshape_1"
  attr {
    key: "T"
    value {
      type: DT_FLOAT
    }
  }
  attr {
    key: "_class"
    value {
      list {
        s: "loc:@model/pi_fc0/b"
      }
    }
  }
}
node {
  name: "Adam_mpi/strided_slice_2/stack"
  op: "Const"
  attr {
    key: "dtype"
    value {
      type: DT_INT32
    }
  }
  attr {
    key: "value"
    value {
      tensor {
        dtype: DT_INT32
        tensor_shape {
          dim {
            size: 1
          }
        }
        int_val: 992
      }
    }
  }
}
node {
  name: "Adam_mpi/strided_slice_2/stack_1"
  op: "Const"
  attr {
    key: "dtype"
    value {
      type: DT_INT32
    }
  }
  attr {
    key: "value"
    value {
      tensor {
        dtype: DT_INT32
        tensor_shape {
          dim {
            size: 1
          }
        }
        int_val: 1952
      }
    }
  }
}
node {
  name: "Adam_mpi/strided_slice_2/stack_2"
  op: "Const"
  attr {
    key: "dtype"
    value {
      type: DT_INT32
    }
  }
  attr {
    key: "value"
    value {
      tensor {
        dtype: DT_INT32
        tensor_shape {
          dim {
            size: 1
          }
        }
        int_val: 1
      }
    }
  }
}
node {
  name: "Adam_mpi/strided_slice_2"
  op: "StridedSlice"
  input: "Adam_mpi/Placeholder"
  input: "Adam_mpi/strided_slice_2/stack"
  input: "Adam_mpi/strided_slice_2/stack_1"
  input: "Adam_mpi/strided_slice_2/stack_2"
  attr {
    key: "Index"
    value {
      type: DT_INT32
    }
  }
  attr {
    key: "T"
    value {
      type: DT_FLOAT
    }
  }
  attr {
    key: "begin_mask"
    value {
      i: 0
    }
  }
  attr {
    key: "ellipsis_mask"
    value {
      i: 0
    }
  }
  attr {
    key: "end_mask"
    value {
      i: 0
    }
  }
  attr {
    key: "new_axis_mask"
    value {
      i: 0
    }
  }
  attr {
    key: "shrink_axis_mask"
    value {
      i: 0
    }
  }
}
node {
  name: "Adam_mpi/Reshape_2/shape"
  op: "Const"
  attr {
    key: "dtype"
    value {
      type: DT_INT32
    }
  }
  attr {
    key: "value"
    value {
      tensor {
        dtype: DT_INT32
        tensor_shape {
          dim {
            size: 2
          }
        }
        tensor_content: "\036\000\000\000 \000\000\000"
      }
    }
  }
}
node {
  name: "Adam_mpi/Reshape_2"
  op: "Reshape"
  input: "Adam_mpi/strided_slice_2"
  input: "Adam_mpi/Reshape_2/shape"
  attr {
    key: "T"
    value {
      type: DT_FLOAT
    }
  }
  attr {
    key: "Tshape"
    value {
      type: DT_INT32
    }
  }
}
node {
  name: "Adam_mpi/Assign_2"
  op: "Identity"
  input: "Adam_mpi/Reshape_2"
  attr {
    key: "T"
    value {
      type: DT_FLOAT
    }
  }
  attr {
    key: "_class"
    value {
      list {
        s: "loc:@model/vf_fc0/w"
      }
    }
  }
}
node {
  name: "Adam_mpi/strided_slice_3/stack"
  op: "Const"
  attr {
    key: "dtype"
    value {
      type: DT_INT32
    }
  }
  attr {
    key: "value"
    value {
      tensor {
        dtype: DT_INT32
        tensor_shape {
          dim {
            size: 1
          }
        }
        int_val: 1952
      }
    }
  }
}
node {
  name: "Adam_mpi/strided_slice_3/stack_1"
  op: "Const"
  attr {
    key: "dtype"
    value {
      type: DT_INT32
    }
  }
  attr {
    key: "value"
    value {
      tensor {
        dtype: DT_INT32
        tensor_shape {
          dim {
            size: 1
          }
        }
        int_val: 1984
      }
    }
  }
}
node {
  name: "Adam_mpi/strided_slice_3/stack_2"
  op: "Const"
  attr {
    key: "dtype"
    value {
      type: DT_INT32
    }
  }
  attr {
    key: "value"
    value {
      tensor {
        dtype: DT_INT32
        tensor_shape {
          dim {
            size: 1
          }
        }
        int_val: 1
      }
    }
  }
}
node {
  name: "Adam_mpi/strided_slice_3"
  op: "StridedSlice"
  input: "Adam_mpi/Placeholder"
  input: "Adam_mpi/strided_slice_3/stack"
  input: "Adam_mpi/strided_slice_3/stack_1"
  input: "Adam_mpi/strided_slice_3/stack_2"
  attr {
    key: "Index"
    value {
      type: DT_INT32
    }
  }
  attr {
    key: "T"
    value {
      type: DT_FLOAT
    }
  }
  attr {
    key: "begin_mask"
    value {
      i: 0
    }
  }
  attr {
    key: "ellipsis_mask"
    value {
      i: 0
    }
  }
  attr {
    key: "end_mask"
    value {
      i: 0
    }
  }
  attr {
    key: "new_axis_mask"
    value {
      i: 0
    }
  }
  attr {
    key: "shrink_axis_mask"
    value {
      i: 0
    }
  }
}
node {
  name: "Adam_mpi/Reshape_3/shape"
  op: "Const"
  attr {
    key: "dtype"
    value {
      type: DT_INT32
    }
  }
  attr {
    key: "value"
    value {
      tensor {
        dtype: DT_INT32
        tensor_shape {
          dim {
            size: 1
          }
        }
        int_val: 32
      }
    }
  }
}
node {
  name: "Adam_mpi/Reshape_3"
  op: "Reshape"
  input: "Adam_mpi/strided_slice_3"
  input: "Adam_mpi/Reshape_3/shape"
  attr {
    key: "T"
    value {
      type: DT_FLOAT
    }
  }
  attr {
    key: "Tshape"
    value {
      type: DT_INT32
    }
  }
}
node {
  name: "Adam_mpi/Assign_3"
  op: "Identity"
  input: "Adam_mpi/Reshape_3"
  attr {
    key: "T"
    value {
      type: DT_FLOAT
    }
  }
  attr {
    key: "_class"
    value {
      list {
        s: "loc:@model/vf_fc0/b"
      }
    }
  }
}
node {
  name: "Adam_mpi/strided_slice_4/stack"
  op: "Const"
  attr {
    key: "dtype"
    value {
      type: DT_INT32
    }
  }
  attr {
    key: "value"
    value {
      tensor {
        dtype: DT_INT32
        tensor_shape {
          dim {
            size: 1
          }
        }
        int_val: 1984
      }
    }
  }
}
node {
  name: "Adam_mpi/strided_slice_4/stack_1"
  op: "Const"
  attr {
    key: "dtype"
    value {
      type: DT_INT32
    }
  }
  attr {
    key: "value"
    value {
      tensor {
        dtype: DT_INT32
        tensor_shape {
          dim {
            size: 1
          }
        }
        int_val: 2496
      }
    }
  }
}
node {
  name: "Adam_mpi/strided_slice_4/stack_2"
  op: "Const"
  attr {
    key: "dtype"
    value {
      type: DT_INT32
    }
  }
  attr {
    key: "value"
    value {
      tensor {
        dtype: DT_INT32
        tensor_shape {
          dim {
            size: 1
          }
        }
        int_val: 1
      }
    }
  }
}
node {
  name: "Adam_mpi/strided_slice_4"
  op: "StridedSlice"
  input: "Adam_mpi/Placeholder"
  input: "Adam_mpi/strided_slice_4/stack"
  input: "Adam_mpi/strided_slice_4/stack_1"
  input: "Adam_mpi/strided_slice_4/stack_2"
  attr {
    key: "Index"
    value {
      type: DT_INT32
    }
  }
  attr {
    key: "T"
    value {
      type: DT_FLOAT
    }
  }
  attr {
    key: "begin_mask"
    value {
      i: 0
    }
  }
  attr {
    key: "ellipsis_mask"
    value {
      i: 0
    }
  }
  attr {
    key: "end_mask"
    value {
      i: 0
    }
  }
  attr {
    key: "new_axis_mask"
    value {
      i: 0
    }
  }
  attr {
    key: "shrink_axis_mask"
    value {
      i: 0
    }
  }
}
node {
  name: "Adam_mpi/Reshape_4/shape"
  op: "Const"
  attr {
    key: "dtype"
    value {
      type: DT_INT32
    }
  }
  attr {
    key: "value"
    value {
      tensor {
        dtype: DT_INT32
        tensor_shape {
          dim {
            size: 2
          }
        }
        tensor_content: " \000\000\000\020\000\000\000"
      }
    }
  }
}
node {
  name: "Adam_mpi/Reshape_4"
  op: "Reshape"
  input: "Adam_mpi/strided_slice_4"
  input: "Adam_mpi/Reshape_4/shape"
  attr {
    key: "T"
    value {
      type: DT_FLOAT
    }
  }
  attr {
    key: "Tshape"
    value {
      type: DT_INT32
    }
  }
}
node {
  name: "Adam_mpi/Assign_4"
  op: "Identity"
  input: "Adam_mpi/Reshape_4"
  attr {
    key: "T"
    value {
      type: DT_FLOAT
    }
  }
  attr {
    key: "_class"
    value {
      list {
        s: "loc:@model/pi_fc1/w"
      }
    }
  }
}
node {
  name: "Adam_mpi/strided_slice_5/stack"
  op: "Const"
  attr {
    key: "dtype"
    value {
      type: DT_INT32
    }
  }
  attr {
    key: "value"
    value {
      tensor {
        dtype: DT_INT32
        tensor_shape {
          dim {
            size: 1
          }
        }
        int_val: 2496
      }
    }
  }
}
node {
  name: "Adam_mpi/strided_slice_5/stack_1"
  op: "Const"
  attr {
    key: "dtype"
    value {
      type: DT_INT32
    }
  }
  attr {
    key: "value"
    value {
      tensor {
        dtype: DT_INT32
        tensor_shape {
          dim {
            size: 1
          }
        }
        int_val: 2512
      }
    }
  }
}
node {
  name: "Adam_mpi/strided_slice_5/stack_2"
  op: "Const"
  attr {
    key: "dtype"
    value {
      type: DT_INT32
    }
  }
  attr {
    key: "value"
    value {
      tensor {
        dtype: DT_INT32
        tensor_shape {
          dim {
            size: 1
          }
        }
        int_val: 1
      }
    }
  }
}
node {
  name: "Adam_mpi/strided_slice_5"
  op: "StridedSlice"
  input: "Adam_mpi/Placeholder"
  input: "Adam_mpi/strided_slice_5/stack"
  input: "Adam_mpi/strided_slice_5/stack_1"
  input: "Adam_mpi/strided_slice_5/stack_2"
  attr {
    key: "Index"
    value {
      type: DT_INT32
    }
  }
  attr {
    key: "T"
    value {
      type: DT_FLOAT
    }
  }
  attr {
    key: "begin_mask"
    value {
      i: 0
    }
  }
  attr {
    key: "ellipsis_mask"
    value {
      i: 0
    }
  }
  attr {
    key: "end_mask"
    value {
      i: 0
    }
  }
  attr {
    key: "new_axis_mask"
    value {
      i: 0
    }
  }
  attr {
    key: "shrink_axis_mask"
    value {
      i: 0
    }
  }
}
node {
  name: "Adam_mpi/Reshape_5/shape"
  op: "Const"
  attr {
    key: "dtype"
    value {
      type: DT_INT32
    }
  }
  attr {
    key: "value"
    value {
      tensor {
        dtype: DT_INT32
        tensor_shape {
          dim {
            size: 1
          }
        }
        int_val: 16
      }
    }
  }
}
node {
  name: "Adam_mpi/Reshape_5"
  op: "Reshape"
  input: "Adam_mpi/strided_slice_5"
  input: "Adam_mpi/Reshape_5/shape"
  attr {
    key: "T"
    value {
      type: DT_FLOAT
    }
  }
  attr {
    key: "Tshape"
    value {
      type: DT_INT32
    }
  }
}
node {
  name: "Adam_mpi/Assign_5"
  op: "Identity"
  input: "Adam_mpi/Reshape_5"
  attr {
    key: "T"
    value {
      type: DT_FLOAT
    }
  }
  attr {
    key: "_class"
    value {
      list {
        s: "loc:@model/pi_fc1/b"
      }
    }
  }
}
node {
  name: "Adam_mpi/strided_slice_6/stack"
  op: "Const"
  attr {
    key: "dtype"
    value {
      type: DT_INT32
    }
  }
  attr {
    key: "value"
    value {
      tensor {
        dtype: DT_INT32
        tensor_shape {
          dim {
            size: 1
          }
        }
        int_val: 2512
      }
    }
  }
}
node {
  name: "Adam_mpi/strided_slice_6/stack_1"
  op: "Const"
  attr {
    key: "dtype"
    value {
      type: DT_INT32
    }
  }
  attr {
    key: "value"
    value {
      tensor {
        dtype: DT_INT32
        tensor_shape {
          dim {
            size: 1
          }
        }
        int_val: 3024
      }
    }
  }
}
node {
  name: "Adam_mpi/strided_slice_6/stack_2"
  op: "Const"
  attr {
    key: "dtype"
    value {
      type: DT_INT32
    }
  }
  attr {
    key: "value"
    value {
      tensor {
        dtype: DT_INT32
        tensor_shape {
          dim {
            size: 1
          }
        }
        int_val: 1
      }
    }
  }
}
node {
  name: "Adam_mpi/strided_slice_6"
  op: "StridedSlice"
  input: "Adam_mpi/Placeholder"
  input: "Adam_mpi/strided_slice_6/stack"
  input: "Adam_mpi/strided_slice_6/stack_1"
  input: "Adam_mpi/strided_slice_6/stack_2"
  attr {
    key: "Index"
    value {
      type: DT_INT32
    }
  }
  attr {
    key: "T"
    value {
      type: DT_FLOAT
    }
  }
  attr {
    key: "begin_mask"
    value {
      i: 0
    }
  }
  attr {
    key: "ellipsis_mask"
    value {
      i: 0
    }
  }
  attr {
    key: "end_mask"
    value {
      i: 0
    }
  }
  attr {
    key: "new_axis_mask"
    value {
      i: 0
    }
  }
  attr {
    key: "shrink_axis_mask"
    value {
      i: 0
    }
  }
}
node {
  name: "Adam_mpi/Reshape_6/shape"
  op: "Const"
  attr {
    key: "dtype"
    value {
      type: DT_INT32
    }
  }
  attr {
    key: "value"
    value {
      tensor {
        dtype: DT_INT32
        tensor_shape {
          dim {
            size: 2
          }
        }
        tensor_content: " \000\000\000\020\000\000\000"
      }
    }
  }
}
node {
  name: "Adam_mpi/Reshape_6"
  op: "Reshape"
  input: "Adam_mpi/strided_slice_6"
  input: "Adam_mpi/Reshape_6/shape"
  attr {
    key: "T"
    value {
      type: DT_FLOAT
    }
  }
  attr {
    key: "Tshape"
    value {
      type: DT_INT32
    }
  }
}
node {
  name: "Adam_mpi/Assign_6"
  op: "Identity"
  input: "Adam_mpi/Reshape_6"
  attr {
    key: "T"
    value {
      type: DT_FLOAT
    }
  }
  attr {
    key: "_class"
    value {
      list {
        s: "loc:@model/vf_fc1/w"
      }
    }
  }
}
node {
  name: "Adam_mpi/strided_slice_7/stack"
  op: "Const"
  attr {
    key: "dtype"
    value {
      type: DT_INT32
    }
  }
  attr {
    key: "value"
    value {
      tensor {
        dtype: DT_INT32
        tensor_shape {
          dim {
            size: 1
          }
        }
        int_val: 3024
      }
    }
  }
}
node {
  name: "Adam_mpi/strided_slice_7/stack_1"
  op: "Const"
  attr {
    key: "dtype"
    value {
      type: DT_INT32
    }
  }
  attr {
    key: "value"
    value {
      tensor {
        dtype: DT_INT32
        tensor_shape {
          dim {
            size: 1
          }
        }
        int_val: 3040
      }
    }
  }
}
node {
  name: "Adam_mpi/strided_slice_7/stack_2"
  op: "Const"
  attr {
    key: "dtype"
    value {
      type: DT_INT32
    }
  }
  attr {
    key: "value"
    value {
      tensor {
        dtype: DT_INT32
        tensor_shape {
          dim {
            size: 1
          }
        }
        int_val: 1
      }
    }
  }
}
node {
  name: "Adam_mpi/strided_slice_7"
  op: "StridedSlice"
  input: "Adam_mpi/Placeholder"
  input: "Adam_mpi/strided_slice_7/stack"
  input: "Adam_mpi/strided_slice_7/stack_1"
  input: "Adam_mpi/strided_slice_7/stack_2"
  attr {
    key: "Index"
    value {
      type: DT_INT32
    }
  }
  attr {
    key: "T"
    value {
      type: DT_FLOAT
    }
  }
  attr {
    key: "begin_mask"
    value {
      i: 0
    }
  }
  attr {
    key: "ellipsis_mask"
    value {
      i: 0
    }
  }
  attr {
    key: "end_mask"
    value {
      i: 0
    }
  }
  attr {
    key: "new_axis_mask"
    value {
      i: 0
    }
  }
  attr {
    key: "shrink_axis_mask"
    value {
      i: 0
    }
  }
}
node {
  name: "Adam_mpi/Reshape_7/shape"
  op: "Const"
  attr {
    key: "dtype"
    value {
      type: DT_INT32
    }
  }
  attr {
    key: "value"
    value {
      tensor {
        dtype: DT_INT32
        tensor_shape {
          dim {
            size: 1
          }
        }
        int_val: 16
      }
    }
  }
}
node {
  name: "Adam_mpi/Reshape_7"
  op: "Reshape"
  input: "Adam_mpi/strided_slice_7"
  input: "Adam_mpi/Reshape_7/shape"
  attr {
    key: "T"
    value {
      type: DT_FLOAT
    }
  }
  attr {
    key: "Tshape"
    value {
      type: DT_INT32
    }
  }
}
node {
  name: "Adam_mpi/Assign_7"
  op: "Identity"
  input: "Adam_mpi/Reshape_7"
  attr {
    key: "T"
    value {
      type: DT_FLOAT
    }
  }
  attr {
    key: "_class"
    value {
      list {
        s: "loc:@model/vf_fc1/b"
      }
    }
  }
}
node {
  name: "Adam_mpi/strided_slice_8/stack"
  op: "Const"
  attr {
    key: "dtype"
    value {
      type: DT_INT32
    }
  }
  attr {
    key: "value"
    value {
      tensor {
        dtype: DT_INT32
        tensor_shape {
          dim {
            size: 1
          }
        }
        int_val: 3040
      }
    }
  }
}
node {
  name: "Adam_mpi/strided_slice_8/stack_1"
  op: "Const"
  attr {
    key: "dtype"
    value {
      type: DT_INT32
    }
  }
  attr {
    key: "value"
    value {
      tensor {
        dtype: DT_INT32
        tensor_shape {
          dim {
            size: 1
          }
        }
        int_val: 3056
      }
    }
  }
}
node {
  name: "Adam_mpi/strided_slice_8/stack_2"
  op: "Const"
  attr {
    key: "dtype"
    value {
      type: DT_INT32
    }
  }
  attr {
    key: "value"
    value {
      tensor {
        dtype: DT_INT32
        tensor_shape {
          dim {
            size: 1
          }
        }
        int_val: 1
      }
    }
  }
}
node {
  name: "Adam_mpi/strided_slice_8"
  op: "StridedSlice"
  input: "Adam_mpi/Placeholder"
  input: "Adam_mpi/strided_slice_8/stack"
  input: "Adam_mpi/strided_slice_8/stack_1"
  input: "Adam_mpi/strided_slice_8/stack_2"
  attr {
    key: "Index"
    value {
      type: DT_INT32
    }
  }
  attr {
    key: "T"
    value {
      type: DT_FLOAT
    }
  }
  attr {
    key: "begin_mask"
    value {
      i: 0
    }
  }
  attr {
    key: "ellipsis_mask"
    value {
      i: 0
    }
  }
  attr {
    key: "end_mask"
    value {
      i: 0
    }
  }
  attr {
    key: "new_axis_mask"
    value {
      i: 0
    }
  }
  attr {
    key: "shrink_axis_mask"
    value {
      i: 0
    }
  }
}
node {
  name: "Adam_mpi/Reshape_8/shape"
  op: "Const"
  attr {
    key: "dtype"
    value {
      type: DT_INT32
    }
  }
  attr {
    key: "value"
    value {
      tensor {
        dtype: DT_INT32
        tensor_shape {
          dim {
            size: 2
          }
        }
        tensor_content: "\020\000\000\000\001\000\000\000"
      }
    }
  }
}
node {
  name: "Adam_mpi/Reshape_8"
  op: "Reshape"
  input: "Adam_mpi/strided_slice_8"
  input: "Adam_mpi/Reshape_8/shape"
  attr {
    key: "T"
    value {
      type: DT_FLOAT
    }
  }
  attr {
    key: "Tshape"
    value {
      type: DT_INT32
    }
  }
}
node {
  name: "Adam_mpi/Assign_8"
  op: "Identity"
  input: "Adam_mpi/Reshape_8"
  attr {
    key: "T"
    value {
      type: DT_FLOAT
    }
  }
  attr {
    key: "_class"
    value {
      list {
        s: "loc:@model/vf/w"
      }
    }
  }
}
node {
  name: "Adam_mpi/strided_slice_9/stack"
  op: "Const"
  attr {
    key: "dtype"
    value {
      type: DT_INT32
    }
  }
  attr {
    key: "value"
    value {
      tensor {
        dtype: DT_INT32
        tensor_shape {
          dim {
            size: 1
          }
        }
        int_val: 3056
      }
    }
  }
}
node {
  name: "Adam_mpi/strided_slice_9/stack_1"
  op: "Const"
  attr {
    key: "dtype"
    value {
      type: DT_INT32
    }
  }
  attr {
    key: "value"
    value {
      tensor {
        dtype: DT_INT32
        tensor_shape {
          dim {
            size: 1
          }
        }
        int_val: 3057
      }
    }
  }
}
node {
  name: "Adam_mpi/strided_slice_9/stack_2"
  op: "Const"
  attr {
    key: "dtype"
    value {
      type: DT_INT32
    }
  }
  attr {
    key: "value"
    value {
      tensor {
        dtype: DT_INT32
        tensor_shape {
          dim {
            size: 1
          }
        }
        int_val: 1
      }
    }
  }
}
node {
  name: "Adam_mpi/strided_slice_9"
  op: "StridedSlice"
  input: "Adam_mpi/Placeholder"
  input: "Adam_mpi/strided_slice_9/stack"
  input: "Adam_mpi/strided_slice_9/stack_1"
  input: "Adam_mpi/strided_slice_9/stack_2"
  attr {
    key: "Index"
    value {
      type: DT_INT32
    }
  }
  attr {
    key: "T"
    value {
      type: DT_FLOAT
    }
  }
  attr {
    key: "begin_mask"
    value {
      i: 0
    }
  }
  attr {
    key: "ellipsis_mask"
    value {
      i: 0
    }
  }
  attr {
    key: "end_mask"
    value {
      i: 0
    }
  }
  attr {
    key: "new_axis_mask"
    value {
      i: 0
    }
  }
  attr {
    key: "shrink_axis_mask"
    value {
      i: 0
    }
  }
}
node {
  name: "Adam_mpi/Reshape_9/shape"
  op: "Const"
  attr {
    key: "dtype"
    value {
      type: DT_INT32
    }
  }
  attr {
    key: "value"
    value {
      tensor {
        dtype: DT_INT32
        tensor_shape {
          dim {
            size: 1
          }
        }
        int_val: 1
      }
    }
  }
}
node {
  name: "Adam_mpi/Reshape_9"
  op: "Reshape"
  input: "Adam_mpi/strided_slice_9"
  input: "Adam_mpi/Reshape_9/shape"
  attr {
    key: "T"
    value {
      type: DT_FLOAT
    }
  }
  attr {
    key: "Tshape"
    value {
      type: DT_INT32
    }
  }
}
node {
  name: "Adam_mpi/Assign_9"
  op: "Identity"
  input: "Adam_mpi/Reshape_9"
  attr {
    key: "T"
    value {
      type: DT_FLOAT
    }
  }
  attr {
    key: "_class"
    value {
      list {
        s: "loc:@model/vf/b"
      }
    }
  }
}
node {
  name: "Adam_mpi/strided_slice_10/stack"
  op: "Const"
  attr {
    key: "dtype"
    value {
      type: DT_INT32
    }
  }
  attr {
    key: "value"
    value {
      tensor {
        dtype: DT_INT32
        tensor_shape {
          dim {
            size: 1
          }
        }
        int_val: 3057
      }
    }
  }
}
node {
  name: "Adam_mpi/strided_slice_10/stack_1"
  op: "Const"
  attr {
    key: "dtype"
    value {
      type: DT_INT32
    }
  }
  attr {
    key: "value"
    value {
      tensor {
        dtype: DT_INT32
        tensor_shape {
          dim {
            size: 1
          }
        }
        int_val: 3073
      }
    }
  }
}
node {
  name: "Adam_mpi/strided_slice_10/stack_2"
  op: "Const"
  attr {
    key: "dtype"
    value {
      type: DT_INT32
    }
  }
  attr {
    key: "value"
    value {
      tensor {
        dtype: DT_INT32
        tensor_shape {
          dim {
            size: 1
          }
        }
        int_val: 1
      }
    }
  }
}
node {
  name: "Adam_mpi/strided_slice_10"
  op: "StridedSlice"
  input: "Adam_mpi/Placeholder"
  input: "Adam_mpi/strided_slice_10/stack"
  input: "Adam_mpi/strided_slice_10/stack_1"
  input: "Adam_mpi/strided_slice_10/stack_2"
  attr {
    key: "Index"
    value {
      type: DT_INT32
    }
  }
  attr {
    key: "T"
    value {
      type: DT_FLOAT
    }
  }
  attr {
    key: "begin_mask"
    value {
      i: 0
    }
  }
  attr {
    key: "ellipsis_mask"
    value {
      i: 0
    }
  }
  attr {
    key: "end_mask"
    value {
      i: 0
    }
  }
  attr {
    key: "new_axis_mask"
    value {
      i: 0
    }
  }
  attr {
    key: "shrink_axis_mask"
    value {
      i: 0
    }
  }
}
node {
  name: "Adam_mpi/Reshape_10/shape"
  op: "Const"
  attr {
    key: "dtype"
    value {
      type: DT_INT32
    }
  }
  attr {
    key: "value"
    value {
      tensor {
        dtype: DT_INT32
        tensor_shape {
          dim {
            size: 2
          }
        }
        tensor_content: "\020\000\000\000\001\000\000\000"
      }
    }
  }
}
node {
  name: "Adam_mpi/Reshape_10"
  op: "Reshape"
  input: "Adam_mpi/strided_slice_10"
  input: "Adam_mpi/Reshape_10/shape"
  attr {
    key: "T"
    value {
      type: DT_FLOAT
    }
  }
  attr {
    key: "Tshape"
    value {
      type: DT_INT32
    }
  }
}
node {
  name: "Adam_mpi/Assign_10"
  op: "Identity"
  input: "Adam_mpi/Reshape_10"
  attr {
    key: "T"
    value {
      type: DT_FLOAT
    }
  }
  attr {
    key: "_class"
    value {
      list {
        s: "loc:@model/pi/w"
      }
    }
  }
}
node {
  name: "Adam_mpi/strided_slice_11/stack"
  op: "Const"
  attr {
    key: "dtype"
    value {
      type: DT_INT32
    }
  }
  attr {
    key: "value"
    value {
      tensor {
        dtype: DT_INT32
        tensor_shape {
          dim {
            size: 1
          }
        }
        int_val: 3073
      }
    }
  }
}
node {
  name: "Adam_mpi/strided_slice_11/stack_1"
  op: "Const"
  attr {
    key: "dtype"
    value {
      type: DT_INT32
    }
  }
  attr {
    key: "value"
    value {
      tensor {
        dtype: DT_INT32
        tensor_shape {
          dim {
            size: 1
          }
        }
        int_val: 3074
      }
    }
  }
}
node {
  name: "Adam_mpi/strided_slice_11/stack_2"
  op: "Const"
  attr {
    key: "dtype"
    value {
      type: DT_INT32
    }
  }
  attr {
    key: "value"
    value {
      tensor {
        dtype: DT_INT32
        tensor_shape {
          dim {
            size: 1
          }
        }
        int_val: 1
      }
    }
  }
}
node {
  name: "Adam_mpi/strided_slice_11"
  op: "StridedSlice"
  input: "Adam_mpi/Placeholder"
  input: "Adam_mpi/strided_slice_11/stack"
  input: "Adam_mpi/strided_slice_11/stack_1"
  input: "Adam_mpi/strided_slice_11/stack_2"
  attr {
    key: "Index"
    value {
      type: DT_INT32
    }
  }
  attr {
    key: "T"
    value {
      type: DT_FLOAT
    }
  }
  attr {
    key: "begin_mask"
    value {
      i: 0
    }
  }
  attr {
    key: "ellipsis_mask"
    value {
      i: 0
    }
  }
  attr {
    key: "end_mask"
    value {
      i: 0
    }
  }
  attr {
    key: "new_axis_mask"
    value {
      i: 0
    }
  }
  attr {
    key: "shrink_axis_mask"
    value {
      i: 0
    }
  }
}
node {
  name: "Adam_mpi/Reshape_11/shape"
  op: "Const"
  attr {
    key: "dtype"
    value {
      type: DT_INT32
    }
  }
  attr {
    key: "value"
    value {
      tensor {
        dtype: DT_INT32
        tensor_shape {
          dim {
            size: 1
          }
        }
        int_val: 1
      }
    }
  }
}
node {
  name: "Adam_mpi/Reshape_11"
  op: "Reshape"
  input: "Adam_mpi/strided_slice_11"
  input: "Adam_mpi/Reshape_11/shape"
  attr {
    key: "T"
    value {
      type: DT_FLOAT
    }
  }
  attr {
    key: "Tshape"
    value {
      type: DT_INT32
    }
  }
}
node {
  name: "Adam_mpi/Assign_11"
  op: "Identity"
  input: "Adam_mpi/Reshape_11"
  attr {
    key: "T"
    value {
      type: DT_FLOAT
    }
  }
  attr {
    key: "_class"
    value {
      list {
        s: "loc:@model/pi/b"
      }
    }
  }
}
node {
  name: "Adam_mpi/strided_slice_12/stack"
  op: "Const"
  attr {
    key: "dtype"
    value {
      type: DT_INT32
    }
  }
  attr {
    key: "value"
    value {
      tensor {
        dtype: DT_INT32
        tensor_shape {
          dim {
            size: 1
          }
        }
        int_val: 3074
      }
    }
  }
}
node {
  name: "Adam_mpi/strided_slice_12/stack_1"
  op: "Const"
  attr {
    key: "dtype"
    value {
      type: DT_INT32
    }
  }
  attr {
    key: "value"
    value {
      tensor {
        dtype: DT_INT32
        tensor_shape {
          dim {
            size: 1
          }
        }
        int_val: 3075
      }
    }
  }
}
node {
  name: "Adam_mpi/strided_slice_12/stack_2"
  op: "Const"
  attr {
    key: "dtype"
    value {
      type: DT_INT32
    }
  }
  attr {
    key: "value"
    value {
      tensor {
        dtype: DT_INT32
        tensor_shape {
          dim {
            size: 1
          }
        }
        int_val: 1
      }
    }
  }
}
node {
  name: "Adam_mpi/strided_slice_12"
  op: "StridedSlice"
  input: "Adam_mpi/Placeholder"
  input: "Adam_mpi/strided_slice_12/stack"
  input: "Adam_mpi/strided_slice_12/stack_1"
  input: "Adam_mpi/strided_slice_12/stack_2"
  attr {
    key: "Index"
    value {
      type: DT_INT32
    }
  }
  attr {
    key: "T"
    value {
      type: DT_FLOAT
    }
  }
  attr {
    key: "begin_mask"
    value {
      i: 0
    }
  }
  attr {
    key: "ellipsis_mask"
    value {
      i: 0
    }
  }
  attr {
    key: "end_mask"
    value {
      i: 0
    }
  }
  attr {
    key: "new_axis_mask"
    value {
      i: 0
    }
  }
  attr {
    key: "shrink_axis_mask"
    value {
      i: 0
    }
  }
}
node {
  name: "Adam_mpi/Reshape_12/shape"
  op: "Const"
  attr {
    key: "dtype"
    value {
      type: DT_INT32
    }
  }
  attr {
    key: "value"
    value {
      tensor {
        dtype: DT_INT32
        tensor_shape {
          dim {
            size: 2
          }
        }
        tensor_content: "\001\000\000\000\001\000\000\000"
      }
    }
  }
}
node {
  name: "Adam_mpi/Reshape_12"
  op: "Reshape"
  input: "Adam_mpi/strided_slice_12"
  input: "Adam_mpi/Reshape_12/shape"
  attr {
    key: "T"
    value {
      type: DT_FLOAT
    }
  }
  attr {
    key: "Tshape"
    value {
      type: DT_INT32
    }
  }
}
node {
  name: "Adam_mpi/Assign_12"
  op: "Identity"
  input: "Adam_mpi/Reshape_12"
  attr {
    key: "T"
    value {
      type: DT_FLOAT
    }
  }
  attr {
    key: "_class"
    value {
      list {
        s: "loc:@model/pi/logstd"
      }
    }
  }
}
node {
  name: "Adam_mpi/strided_slice_13/stack"
  op: "Const"
  attr {
    key: "dtype"
    value {
      type: DT_INT32
    }
  }
  attr {
    key: "value"
    value {
      tensor {
        dtype: DT_INT32
        tensor_shape {
          dim {
            size: 1
          }
        }
        int_val: 3075
      }
    }
  }
}
node {
  name: "Adam_mpi/strided_slice_13/stack_1"
  op: "Const"
  attr {
    key: "dtype"
    value {
      type: DT_INT32
    }
  }
  attr {
    key: "value"
    value {
      tensor {
        dtype: DT_INT32
        tensor_shape {
          dim {
            size: 1
          }
        }
        int_val: 3091
      }
    }
  }
}
node {
  name: "Adam_mpi/strided_slice_13/stack_2"
  op: "Const"
  attr {
    key: "dtype"
    value {
      type: DT_INT32
    }
  }
  attr {
    key: "value"
    value {
      tensor {
        dtype: DT_INT32
        tensor_shape {
          dim {
            size: 1
          }
        }
        int_val: 1
      }
    }
  }
}
node {
  name: "Adam_mpi/strided_slice_13"
  op: "StridedSlice"
  input: "Adam_mpi/Placeholder"
  input: "Adam_mpi/strided_slice_13/stack"
  input: "Adam_mpi/strided_slice_13/stack_1"
  input: "Adam_mpi/strided_slice_13/stack_2"
  attr {
    key: "Index"
    value {
      type: DT_INT32
    }
  }
  attr {
    key: "T"
    value {
      type: DT_FLOAT
    }
  }
  attr {
    key: "begin_mask"
    value {
      i: 0
    }
  }
  attr {
    key: "ellipsis_mask"
    value {
      i: 0
    }
  }
  attr {
    key: "end_mask"
    value {
      i: 0
    }
  }
  attr {
    key: "new_axis_mask"
    value {
      i: 0
    }
  }
  attr {
    key: "shrink_axis_mask"
    value {
      i: 0
    }
  }
}
node {
  name: "Adam_mpi/Reshape_13/shape"
  op: "Const"
  attr {
    key: "dtype"
    value {
      type: DT_INT32
    }
  }
  attr {
    key: "value"
    value {
      tensor {
        dtype: DT_INT32
        tensor_shape {
          dim {
            size: 2
          }
        }
        tensor_content: "\020\000\000\000\001\000\000\000"
      }
    }
  }
}
node {
  name: "Adam_mpi/Reshape_13"
  op: "Reshape"
  input: "Adam_mpi/strided_slice_13"
  input: "Adam_mpi/Reshape_13/shape"
  attr {
    key: "T"
    value {
      type: DT_FLOAT
    }
  }
  attr {
    key: "Tshape"
    value {
      type: DT_INT32
    }
  }
}
node {
  name: "Adam_mpi/Assign_13"
  op: "Identity"
  input: "Adam_mpi/Reshape_13"
  attr {
    key: "T"
    value {
      type: DT_FLOAT
    }
  }
  attr {
    key: "_class"
    value {
      list {
        s: "loc:@model/q/w"
      }
    }
  }
}
node {
  name: "Adam_mpi/strided_slice_14/stack"
  op: "Const"
  attr {
    key: "dtype"
    value {
      type: DT_INT32
    }
  }
  attr {
    key: "value"
    value {
      tensor {
        dtype: DT_INT32
        tensor_shape {
          dim {
            size: 1
          }
        }
        int_val: 3091
      }
    }
  }
}
node {
  name: "Adam_mpi/strided_slice_14/stack_1"
  op: "Const"
  attr {
    key: "dtype"
    value {
      type: DT_INT32
    }
  }
  attr {
    key: "value"
    value {
      tensor {
        dtype: DT_INT32
        tensor_shape {
          dim {
            size: 1
          }
        }
        int_val: 3092
      }
    }
  }
}
node {
  name: "Adam_mpi/strided_slice_14/stack_2"
  op: "Const"
  attr {
    key: "dtype"
    value {
      type: DT_INT32
    }
  }
  attr {
    key: "value"
    value {
      tensor {
        dtype: DT_INT32
        tensor_shape {
          dim {
            size: 1
          }
        }
        int_val: 1
      }
    }
  }
}
node {
  name: "Adam_mpi/strided_slice_14"
  op: "StridedSlice"
  input: "Adam_mpi/Placeholder"
  input: "Adam_mpi/strided_slice_14/stack"
  input: "Adam_mpi/strided_slice_14/stack_1"
  input: "Adam_mpi/strided_slice_14/stack_2"
  attr {
    key: "Index"
    value {
      type: DT_INT32
    }
  }
  attr {
    key: "T"
    value {
      type: DT_FLOAT
    }
  }
  attr {
    key: "begin_mask"
    value {
      i: 0
    }
  }
  attr {
    key: "ellipsis_mask"
    value {
      i: 0
    }
  }
  attr {
    key: "end_mask"
    value {
      i: 0
    }
  }
  attr {
    key: "new_axis_mask"
    value {
      i: 0
    }
  }
  attr {
    key: "shrink_axis_mask"
    value {
      i: 0
    }
  }
}
node {
  name: "Adam_mpi/Reshape_14/shape"
  op: "Const"
  attr {
    key: "dtype"
    value {
      type: DT_INT32
    }
  }
  attr {
    key: "value"
    value {
      tensor {
        dtype: DT_INT32
        tensor_shape {
          dim {
            size: 1
          }
        }
        int_val: 1
      }
    }
  }
}
node {
  name: "Adam_mpi/Reshape_14"
  op: "Reshape"
  input: "Adam_mpi/strided_slice_14"
  input: "Adam_mpi/Reshape_14/shape"
  attr {
    key: "T"
    value {
      type: DT_FLOAT
    }
  }
  attr {
    key: "Tshape"
    value {
      type: DT_INT32
    }
  }
}
node {
  name: "Adam_mpi/Assign_14"
  op: "Identity"
  input: "Adam_mpi/Reshape_14"
  attr {
    key: "T"
    value {
      type: DT_FLOAT
    }
  }
  attr {
    key: "_class"
    value {
      list {
        s: "loc:@model/q/b"
      }
    }
  }
}
node {
  name: "Adam_mpi/group_deps"
  op: "NoOp"
  input: "^Adam_mpi/Assign"
  input: "^Adam_mpi/Assign_1"
  input: "^Adam_mpi/Assign_10"
  input: "^Adam_mpi/Assign_11"
  input: "^Adam_mpi/Assign_12"
  input: "^Adam_mpi/Assign_13"
  input: "^Adam_mpi/Assign_14"
  input: "^Adam_mpi/Assign_2"
  input: "^Adam_mpi/Assign_3"
  input: "^Adam_mpi/Assign_4"
  input: "^Adam_mpi/Assign_5"
  input: "^Adam_mpi/Assign_6"
  input: "^Adam_mpi/Assign_7"
  input: "^Adam_mpi/Assign_8"
  input: "^Adam_mpi/Assign_9"
}
node {
  name: "Adam_mpi/Reshape_15/shape"
  op: "Const"
  attr {
    key: "dtype"
    value {
      type: DT_INT32
    }
  }
  attr {
    key: "value"
    value {
      tensor {
        dtype: DT_INT32
        tensor_shape {
          dim {
            size: 1
          }
        }
        int_val: 960
      }
    }
  }
}
node {
  name: "Adam_mpi/Reshape_15"
  op: "Reshape"
  input: "model/pi_fc0/w/read"
  input: "Adam_mpi/Reshape_15/shape"
  attr {
    key: "T"
    value {
      type: DT_FLOAT
    }
  }
  attr {
    key: "Tshape"
    value {
      type: DT_INT32
    }
  }
}
node {
  name: "Adam_mpi/Reshape_16/shape"
  op: "Const"
  attr {
    key: "dtype"
    value {
      type: DT_INT32
    }
  }
  attr {
    key: "value"
    value {
      tensor {
        dtype: DT_INT32
        tensor_shape {
          dim {
            size: 1
          }
        }
        int_val: 32
      }
    }
  }
}
node {
  name: "Adam_mpi/Reshape_16"
  op: "Reshape"
  input: "model/pi_fc0/b/read"
  input: "Adam_mpi/Reshape_16/shape"
  attr {
    key: "T"
    value {
      type: DT_FLOAT
    }
  }
  attr {
    key: "Tshape"
    value {
      type: DT_INT32
    }
  }
}
node {
  name: "Adam_mpi/Reshape_17/shape"
  op: "Const"
  attr {
    key: "dtype"
    value {
      type: DT_INT32
    }
  }
  attr {
    key: "value"
    value {
      tensor {
        dtype: DT_INT32
        tensor_shape {
          dim {
            size: 1
          }
        }
        int_val: 960
      }
    }
  }
}
node {
  name: "Adam_mpi/Reshape_17"
  op: "Reshape"
  input: "model/vf_fc0/w/read"
  input: "Adam_mpi/Reshape_17/shape"
  attr {
    key: "T"
    value {
      type: DT_FLOAT
    }
  }
  attr {
    key: "Tshape"
    value {
      type: DT_INT32
    }
  }
}
node {
  name: "Adam_mpi/Reshape_18/shape"
  op: "Const"
  attr {
    key: "dtype"
    value {
      type: DT_INT32
    }
  }
  attr {
    key: "value"
    value {
      tensor {
        dtype: DT_INT32
        tensor_shape {
          dim {
            size: 1
          }
        }
        int_val: 32
      }
    }
  }
}
node {
  name: "Adam_mpi/Reshape_18"
  op: "Reshape"
  input: "model/vf_fc0/b/read"
  input: "Adam_mpi/Reshape_18/shape"
  attr {
    key: "T"
    value {
      type: DT_FLOAT
    }
  }
  attr {
    key: "Tshape"
    value {
      type: DT_INT32
    }
  }
}
node {
  name: "Adam_mpi/Reshape_19/shape"
  op: "Const"
  attr {
    key: "dtype"
    value {
      type: DT_INT32
    }
  }
  attr {
    key: "value"
    value {
      tensor {
        dtype: DT_INT32
        tensor_shape {
          dim {
            size: 1
          }
        }
        int_val: 512
      }
    }
  }
}
node {
  name: "Adam_mpi/Reshape_19"
  op: "Reshape"
  input: "model/pi_fc1/w/read"
  input: "Adam_mpi/Reshape_19/shape"
  attr {
    key: "T"
    value {
      type: DT_FLOAT
    }
  }
  attr {
    key: "Tshape"
    value {
      type: DT_INT32
    }
  }
}
node {
  name: "Adam_mpi/Reshape_20/shape"
  op: "Const"
  attr {
    key: "dtype"
    value {
      type: DT_INT32
    }
  }
  attr {
    key: "value"
    value {
      tensor {
        dtype: DT_INT32
        tensor_shape {
          dim {
            size: 1
          }
        }
        int_val: 16
      }
    }
  }
}
node {
  name: "Adam_mpi/Reshape_20"
  op: "Reshape"
  input: "model/pi_fc1/b/read"
  input: "Adam_mpi/Reshape_20/shape"
  attr {
    key: "T"
    value {
      type: DT_FLOAT
    }
  }
  attr {
    key: "Tshape"
    value {
      type: DT_INT32
    }
  }
}
node {
  name: "Adam_mpi/Reshape_21/shape"
  op: "Const"
  attr {
    key: "dtype"
    value {
      type: DT_INT32
    }
  }
  attr {
    key: "value"
    value {
      tensor {
        dtype: DT_INT32
        tensor_shape {
          dim {
            size: 1
          }
        }
        int_val: 512
      }
    }
  }
}
node {
  name: "Adam_mpi/Reshape_21"
  op: "Reshape"
  input: "model/vf_fc1/w/read"
  input: "Adam_mpi/Reshape_21/shape"
  attr {
    key: "T"
    value {
      type: DT_FLOAT
    }
  }
  attr {
    key: "Tshape"
    value {
      type: DT_INT32
    }
  }
}
node {
  name: "Adam_mpi/Reshape_22/shape"
  op: "Const"
  attr {
    key: "dtype"
    value {
      type: DT_INT32
    }
  }
  attr {
    key: "value"
    value {
      tensor {
        dtype: DT_INT32
        tensor_shape {
          dim {
            size: 1
          }
        }
        int_val: 16
      }
    }
  }
}
node {
  name: "Adam_mpi/Reshape_22"
  op: "Reshape"
  input: "model/vf_fc1/b/read"
  input: "Adam_mpi/Reshape_22/shape"
  attr {
    key: "T"
    value {
      type: DT_FLOAT
    }
  }
  attr {
    key: "Tshape"
    value {
      type: DT_INT32
    }
  }
}
node {
  name: "Adam_mpi/Reshape_23/shape"
  op: "Const"
  attr {
    key: "dtype"
    value {
      type: DT_INT32
    }
  }
  attr {
    key: "value"
    value {
      tensor {
        dtype: DT_INT32
        tensor_shape {
          dim {
            size: 1
          }
        }
        int_val: 16
      }
    }
  }
}
node {
  name: "Adam_mpi/Reshape_23"
  op: "Reshape"
  input: "model/vf/w/read"
  input: "Adam_mpi/Reshape_23/shape"
  attr {
    key: "T"
    value {
      type: DT_FLOAT
    }
  }
  attr {
    key: "Tshape"
    value {
      type: DT_INT32
    }
  }
}
node {
  name: "Adam_mpi/Reshape_24/shape"
  op: "Const"
  attr {
    key: "dtype"
    value {
      type: DT_INT32
    }
  }
  attr {
    key: "value"
    value {
      tensor {
        dtype: DT_INT32
        tensor_shape {
          dim {
            size: 1
          }
        }
        int_val: 1
      }
    }
  }
}
node {
  name: "Adam_mpi/Reshape_24"
  op: "Reshape"
  input: "model/vf/b/read"
  input: "Adam_mpi/Reshape_24/shape"
  attr {
    key: "T"
    value {
      type: DT_FLOAT
    }
  }
  attr {
    key: "Tshape"
    value {
      type: DT_INT32
    }
  }
}
node {
  name: "Adam_mpi/Reshape_25/shape"
  op: "Const"
  attr {
    key: "dtype"
    value {
      type: DT_INT32
    }
  }
  attr {
    key: "value"
    value {
      tensor {
        dtype: DT_INT32
        tensor_shape {
          dim {
            size: 1
          }
        }
        int_val: 16
      }
    }
  }
}
node {
  name: "Adam_mpi/Reshape_25"
  op: "Reshape"
  input: "model/pi/w/read"
  input: "Adam_mpi/Reshape_25/shape"
  attr {
    key: "T"
    value {
      type: DT_FLOAT
    }
  }
  attr {
    key: "Tshape"
    value {
      type: DT_INT32
    }
  }
}
node {
  name: "Adam_mpi/Reshape_26/shape"
  op: "Const"
  attr {
    key: "dtype"
    value {
      type: DT_INT32
    }
  }
  attr {
    key: "value"
    value {
      tensor {
        dtype: DT_INT32
        tensor_shape {
          dim {
            size: 1
          }
        }
        int_val: 1
      }
…
        string_val: ""
        string_val: ""
        string_val: ""
        string_val: ""
        string_val: ""
        string_val: ""
        string_val: ""
        string_val: ""
        string_val: ""
        string_val: ""
        string_val: ""
        string_val: ""
        string_val: ""
        string_val: ""
        string_val: ""
        string_val: ""
        string_val: ""
        string_val: ""
        string_val: ""
        string_val: ""
        string_val: ""
        string_val: ""
        string_val: ""
        string_val: ""
        string_val: ""
        string_val: ""
        string_val: ""
        string_val: ""
        string_val: ""
        string_val: ""
      }
    }
  }
}
node {
  name: "save_4/SaveV2"
  op: "SaveV2"
  input: "save_4/Const"
  input: "save_4/SaveV2/tensor_names"
  input: "save_4/SaveV2/shape_and_slices"
  input: "model/pi/b"
  input: "model/pi/logstd"
  input: "model/pi/w"
  input: "model/pi_fc0/b"
  input: "model/pi_fc0/w"
  input: "model/pi_fc1/b"
  input: "model/pi_fc1/w"
  input: "model/q/b"
  input: "model/q/w"
  input: "model/vf/b"
  input: "model/vf/w"
  input: "model/vf_fc0/b"
  input: "model/vf_fc0/w"
  input: "model/vf_fc1/b"
  input: "model/vf_fc1/w"
  input: "oldpi/model/pi/b"
  input: "oldpi/model/pi/logstd"
  input: "oldpi/model/pi/w"
  input: "oldpi/model/pi_fc0/b"
  input: "oldpi/model/pi_fc0/w"
  input: "oldpi/model/pi_fc1/b"
  input: "oldpi/model/pi_fc1/w"
  input: "oldpi/model/q/b"
  input: "oldpi/model/q/w"
  input: "oldpi/model/vf/b"
  input: "oldpi/model/vf/w"
  input: "oldpi/model/vf_fc0/b"
  input: "oldpi/model/vf_fc0/w"
  input: "oldpi/model/vf_fc1/b"
  input: "oldpi/model/vf_fc1/w"
  attr {
    key: "dtypes"
    value {
      list {
        type: DT_FLOAT
        type: DT_FLOAT
        type: DT_FLOAT
        type: DT_FLOAT
        type: DT_FLOAT
        type: DT_FLOAT
        type: DT_FLOAT
        type: DT_FLOAT
        type: DT_FLOAT
        type: DT_FLOAT
        type: DT_FLOAT
        type: DT_FLOAT
        type: DT_FLOAT
        type: DT_FLOAT
        type: DT_FLOAT
        type: DT_FLOAT
        type: DT_FLOAT
        type: DT_FLOAT
        type: DT_FLOAT
        type: DT_FLOAT
        type: DT_FLOAT
        type: DT_FLOAT
        type: DT_FLOAT
        type: DT_FLOAT
        type: DT_FLOAT
        type: DT_FLOAT
        type: DT_FLOAT
        type: DT_FLOAT
        type: DT_FLOAT
        type: DT_FLOAT
      }
    }
  }
}
node {
  name: "save_4/control_dependency"
  op: "Identity"
  input: "save_4/Const"
  input: "^save_4/SaveV2"
  attr {
    key: "T"
    value {
      type: DT_STRING
    }
  }
  attr {
    key: "_class"
    value {
      list {
        s: "loc:@save_4/Const"
      }
    }
  }
}
node {
  name: "save_4/RestoreV2/tensor_names"
  op: "Const"
  attr {
    key: "dtype"
    value {
      type: DT_STRING
    }
  }
  attr {
    key: "value"
    value {
      tensor {
        dtype: DT_STRING
        tensor_shape {
          dim {
            size: 30
          }
        }
        string_val: "model/pi/b"
        string_val: "model/pi/logstd"
        string_val: "model/pi/w"
        string_val: "model/pi_fc0/b"
        string_val: "model/pi_fc0/w"
        string_val: "model/pi_fc1/b"
        string_val: "model/pi_fc1/w"
        string_val: "model/q/b"
        string_val: "model/q/w"
        string_val: "model/vf/b"
        string_val: "model/vf/w"
        string_val: "model/vf_fc0/b"
        string_val: "model/vf_fc0/w"
        string_val: "model/vf_fc1/b"
        string_val: "model/vf_fc1/w"
        string_val: "oldpi/model/pi/b"
        string_val: "oldpi/model/pi/logstd"
        string_val: "oldpi/model/pi/w"
        string_val: "oldpi/model/pi_fc0/b"
        string_val: "oldpi/model/pi_fc0/w"
        string_val: "oldpi/model/pi_fc1/b"
        string_val: "oldpi/model/pi_fc1/w"
        string_val: "oldpi/model/q/b"
        string_val: "oldpi/model/q/w"
        string_val: "oldpi/model/vf/b"
        string_val: "oldpi/model/vf/w"
        string_val: "oldpi/model/vf_fc0/b"
        string_val: "oldpi/model/vf_fc0/w"
        string_val: "oldpi/model/vf_fc1/b"
        string_val: "oldpi/model/vf_fc1/w"
      }
    }
  }
}
node {
  name: "save_4/RestoreV2/shape_and_slices"
  op: "Const"
  attr {
    key: "dtype"
    value {
      type: DT_STRING
    }
  }
  attr {
    key: "value"
    value {
      tensor {
        dtype: DT_STRING
        tensor_shape {
          dim {
            size: 30
          }
        }
        string_val: ""
        string_val: ""
        string_val: ""
        string_val: ""
        string_val: ""
        string_val: ""
        string_val: ""
        string_val: ""
        string_val: ""
        string_val: ""
        string_val: ""
        string_val: ""
        string_val: ""
        string_val: ""
        string_val: ""
        string_val: ""
        string_val: ""
        string_val: ""
        string_val: ""
        string_val: ""
        string_val: ""
        string_val: ""
        string_val: ""
        string_val: ""
        string_val: ""
        string_val: ""
        string_val: ""
        string_val: ""
        string_val: ""
        string_val: ""
      }
    }
  }
}
node {
  name: "save_4/RestoreV2"
  op: "RestoreV2"
  input: "save_4/Const"
  input: "save_4/RestoreV2/tensor_names"
  input: "save_4/RestoreV2/shape_and_slices"
  attr {
    key: "dtypes"
    value {
      list {
        type: DT_FLOAT
        type: DT_FLOAT
        type: DT_FLOAT
        type: DT_FLOAT
        type: DT_FLOAT
        type: DT_FLOAT
        type: DT_FLOAT
        type: DT_FLOAT
        type: DT_FLOAT
        type: DT_FLOAT
        type: DT_FLOAT
        type: DT_FLOAT
        type: DT_FLOAT
        type: DT_FLOAT
        type: DT_FLOAT
        type: DT_FLOAT
        type: DT_FLOAT
        type: DT_FLOAT
        type: DT_FLOAT
        type: DT_FLOAT
        type: DT_FLOAT
        type: DT_FLOAT
        type: DT_FLOAT
        type: DT_FLOAT
        type: DT_FLOAT
        type: DT_FLOAT
        type: DT_FLOAT
        type: DT_FLOAT
        type: DT_FLOAT
        type: DT_FLOAT
      }
    }
  }
}
node {
  name: "save_4/Assign"
  op: "Identity"
  input: "save_4/RestoreV2"
  attr {
    key: "T"
    value {
      type: DT_FLOAT
    }
  }
  attr {
    key: "_class"
    value {
      list {
        s: "loc:@model/pi/b"
      }
    }
  }
}
node {
  name: "save_4/Assign_1"
  op: "Identity"
  input: "save_4/RestoreV2:1"
  attr {
    key: "T"
    value {
      type: DT_FLOAT
    }
  }
  attr {
    key: "_class"
    value {
      list {
        s: "loc:@model/pi/logstd"
      }
    }
  }
}
node {
  name: "save_4/Assign_2"
  op: "Identity"
  input: "save_4/RestoreV2:2"
  attr {
    key: "T"
    value {
      type: DT_FLOAT
    }
  }
  attr {
    key: "_class"
    value {
      list {
        s: "loc:@model/pi/w"
      }
    }
  }
}
node {
  name: "save_4/Assign_3"
  op: "Identity"
  input: "save_4/RestoreV2:3"
  attr {
    key: "T"
    value {
      type: DT_FLOAT
    }
  }
  attr {
    key: "_class"
    value {
      list {
        s: "loc:@model/pi_fc0/b"
      }
    }
  }
}
node {
  name: "save_4/Assign_4"
  op: "Identity"
  input: "save_4/RestoreV2:4"
  attr {
    key: "T"
    value {
      type: DT_FLOAT
    }
  }
  attr {
    key: "_class"
    value {
      list {
        s: "loc:@model/pi_fc0/w"
      }
    }
  }
}
node {
  name: "save_4/Assign_5"
  op: "Identity"
  input: "save_4/RestoreV2:5"
  attr {
    key: "T"
    value {
      type: DT_FLOAT
    }
  }
  attr {
    key: "_class"
    value {
      list {
        s: "loc:@model/pi_fc1/b"
      }
    }
  }
}
node {
  name: "save_4/Assign_6"
  op: "Identity"
  input: "save_4/RestoreV2:6"
  attr {
    key: "T"
    value {
      type: DT_FLOAT
    }
  }
  attr {
    key: "_class"
    value {
      list {
        s: "loc:@model/pi_fc1/w"
      }
    }
  }
}
node {
  name: "save_4/Assign_7"
  op: "Identity"
  input: "save_4/RestoreV2:7"
  attr {
    key: "T"
    value {
      type: DT_FLOAT
    }
  }
  attr {
    key: "_class"
    value {
      list {
        s: "loc:@model/q/b"
      }
    }
  }
}
node {
  name: "save_4/Assign_8"
  op: "Identity"
  input: "save_4/RestoreV2:8"
  attr {
    key: "T"
    value {
      type: DT_FLOAT
    }
  }
  attr {
    key: "_class"
    value {
      list {
        s: "loc:@model/q/w"
      }
    }
  }
}
node {
  name: "save_4/Assign_9"
  op: "Identity"
  input: "save_4/RestoreV2:9"
  attr {
    key: "T"
    value {
      type: DT_FLOAT
    }
  }
  attr {
    key: "_class"
    value {
      list {
        s: "loc:@model/vf/b"
      }
    }
  }
}
node {
  name: "save_4/Assign_10"
  op: "Identity"
  input: "save_4/RestoreV2:10"
  attr {
    key: "T"
    value {
      type: DT_FLOAT
    }
  }
  attr {
    key: "_class"
    value {
      list {
        s: "loc:@model/vf/w"
      }
    }
  }
}
node {
  name: "save_4/Assign_11"
  op: "Identity"
  input: "save_4/RestoreV2:11"
  attr {
    key: "T"
    value {
      type: DT_FLOAT
    }
  }
  attr {
    key: "_class"
    value {
      list {
        s: "loc:@model/vf_fc0/b"
      }
    }
  }
}
node {
  name: "save_4/Assign_12"
  op: "Identity"
  input: "save_4/RestoreV2:12"
  attr {
    key: "T"
    value {
      type: DT_FLOAT
    }
  }
  attr {
    key: "_class"
    value {
      list {
        s: "loc:@model/vf_fc0/w"
      }
    }
  }
}
node {
  name: "save_4/Assign_13"
  op: "Identity"
  input: "save_4/RestoreV2:13"
  attr {
    key: "T"
    value {
      type: DT_FLOAT
    }
  }
  attr {
    key: "_class"
    value {
      list {
        s: "loc:@model/vf_fc1/b"
      }
    }
  }
}
node {
  name: "save_4/Assign_14"
  op: "Identity"
  input: "save_4/RestoreV2:14"
  attr {
    key: "T"
    value {
      type: DT_FLOAT
    }
  }
  attr {
    key: "_class"
    value {
      list {
        s: "loc:@model/vf_fc1/w"
      }
    }
  }
}
node {
  name: "save_4/Assign_15"
  op: "Identity"
  input: "save_4/RestoreV2:15"
  attr {
    key: "T"
    value {
      type: DT_FLOAT
    }
  }
  attr {
    key: "_class"
    value {
      list {
        s: "loc:@oldpi/model/pi/b"
      }
    }
  }
}
node {
  name: "save_4/Assign_16"
  op: "Identity"
  input: "save_4/RestoreV2:16"
  attr {
    key: "T"
    value {
      type: DT_FLOAT
    }
  }
  attr {
    key: "_class"
    value {
      list {
        s: "loc:@oldpi/model/pi/logstd"
      }
    }
  }
}
node {
  name: "save_4/Assign_17"
  op: "Identity"
  input: "save_4/RestoreV2:17"
  attr {
    key: "T"
    value {
      type: DT_FLOAT
    }
  }
  attr {
    key: "_class"
    value {
      list {
        s: "loc:@oldpi/model/pi/w"
      }
    }
  }
}
node {
  name: "save_4/Assign_18"
  op: "Identity"
  input: "save_4/RestoreV2:18"
  attr {
    key: "T"
    value {
      type: DT_FLOAT
    }
  }
  attr {
    key: "_class"
    value {
      list {
        s: "loc:@oldpi/model/pi_fc0/b"
      }
    }
  }
}
node {
  name: "save_4/Assign_19"
  op: "Identity"
  input: "save_4/RestoreV2:19"
  attr {
    key: "T"
    value {
      type: DT_FLOAT
    }
  }
  attr {
    key: "_class"
    value {
      list {
        s: "loc:@oldpi/model/pi_fc0/w"
      }
    }
  }
}
node {
  name: "save_4/Assign_20"
  op: "Identity"
  input: "save_4/RestoreV2:20"
  attr {
    key: "T"
    value {
      type: DT_FLOAT
    }
  }
  attr {
    key: "_class"
    value {
      list {
        s: "loc:@oldpi/model/pi_fc1/b"
      }
    }
  }
}
node {
  name: "save_4/Assign_21"
  op: "Identity"
  input: "save_4/RestoreV2:21"
  attr {
    key: "T"
    value {
      type: DT_FLOAT
    }
  }
  attr {
    key: "_class"
    value {
      list {
        s: "loc:@oldpi/model/pi_fc1/w"
      }
    }
  }
}
node {
  name: "save_4/Assign_22"
  op: "Identity"
  input: "save_4/RestoreV2:22"
  attr {
    key: "T"
    value {
      type: DT_FLOAT
    }
  }
  attr {
    key: "_class"
    value {
      list {
        s: "loc:@oldpi/model/q/b"
      }
    }
  }
}
node {
  name: "save_4/Assign_23"
  op: "Identity"
  input: "save_4/RestoreV2:23"
  attr {
    key: "T"
    value {
      type: DT_FLOAT
    }
  }
  attr {
    key: "_class"
    value {
      list {
        s: "loc:@oldpi/model/q/w"
      }
    }
  }
}
node {
  name: "save_4/Assign_24"
  op: "Identity"
  input: "save_4/RestoreV2:24"
  attr {
    key: "T"
    value {
      type: DT_FLOAT
    }
  }
  attr {
    key: "_class"
    value {
      list {
        s: "loc:@oldpi/model/vf/b"
      }
    }
  }
}
node {
  name: "save_4/Assign_25"
  op: "Identity"
  input: "save_4/RestoreV2:25"
  attr {
    key: "T"
    value {
      type: DT_FLOAT
    }
  }
  attr {
    key: "_class"
    value {
      list {
        s: "loc:@oldpi/model/vf/w"
      }
    }
  }
}
node {
  name: "save_4/Assign_26"
  op: "Identity"
  input: "save_4/RestoreV2:26"
  attr {
    key: "T"
    value {
      type: DT_FLOAT
    }
  }
  attr {
    key: "_class"
    value {
      list {
        s: "loc:@oldpi/model/vf_fc0/b"
      }
    }
  }
}
node {
  name: "save_4/Assign_27"
  op: "Identity"
  input: "save_4/RestoreV2:27"
  attr {
    key: "T"
    value {
      type: DT_FLOAT
    }
  }
  attr {
    key: "_class"
    value {
      list {
        s: "loc:@oldpi/model/vf_fc0/w"
      }
    }
  }
}
node {
  name: "save_4/Assign_28"
  op: "Identity"
  input: "save_4/RestoreV2:28"
  attr {
    key: "T"
    value {
      type: DT_FLOAT
    }
  }
  attr {
    key: "_class"
    value {
      list {
        s: "loc:@oldpi/model/vf_fc1/b"
      }
    }
  }
}
node {
  name: "save_4/Assign_29"
  op: "Identity"
  input: "save_4/RestoreV2:29"
  attr {
    key: "T"
    value {
      type: DT_FLOAT
    }
  }
  attr {
    key: "_class"
    value {
      list {
        s: "loc:@oldpi/model/vf_fc1/w"
      }
    }
  }
}
node {
  name: "save_4/restore_all"
  op: "NoOp"
  input: "^save_4/Assign"
  input: "^save_4/Assign_1"
  input: "^save_4/Assign_10"
  input: "^save_4/Assign_11"
  input: "^save_4/Assign_12"
  input: "^save_4/Assign_13"
  input: "^save_4/Assign_14"
  input: "^save_4/Assign_15"
  input: "^save_4/Assign_16"
  input: "^save_4/Assign_17"
  input: "^save_4/Assign_18"
  input: "^save_4/Assign_19"
  input: "^save_4/Assign_2"
  input: "^save_4/Assign_20"
  input: "^save_4/Assign_21"
  input: "^save_4/Assign_22"
  input: "^save_4/Assign_23"
  input: "^save_4/Assign_24"
  input: "^save_4/Assign_25"
  input: "^save_4/Assign_26"
  input: "^save_4/Assign_27"
  input: "^save_4/Assign_28"
  input: "^save_4/Assign_29"
  input: "^save_4/Assign_3"
  input: "^save_4/Assign_4"
  input: "^save_4/Assign_5"
  input: "^save_4/Assign_6"
  input: "^save_4/Assign_7"
  input: "^save_4/Assign_8"
  input: "^save_4/Assign_9"
}
node {
  name: "save_5/Const"
  op: "Const"
  attr {
    key: "dtype"
    value {
      type: DT_STRING
    }
  }
  attr {
    key: "value"
    value {
      tensor {
        dtype: DT_STRING
        tensor_shape {
        }
        string_val: "model"
      }
    }
  }
}
node {
  name: "save_5/SaveV2/tensor_names"
  op: "Const"
  attr {
    key: "dtype"
    value {
      type: DT_STRING
    }
  }
  attr {
    key: "value"
    value {
      tensor {
        dtype: DT_STRING
        tensor_shape {
          dim {
            size: 30
          }
        }
        string_val: "model/pi/b"
        string_val: "model/pi/logstd"
        string_val: "model/pi/w"
        string_val: "model/pi_fc0/b"
        string_val: "model/pi_fc0/w"
        string_val: "model/pi_fc1/b"
        string_val: "model/pi_fc1/w"
        string_val: "model/q/b"
        string_val: "model/q/w"
        string_val: "model/vf/b"
        string_val: "model/vf/w"
        string_val: "model/vf_fc0/b"
        string_val: "model/vf_fc0/w"
        string_val: "model/vf_fc1/b"
        string_val: "model/vf_fc1/w"
        string_val: "oldpi/model/pi/b"
        string_val: "oldpi/model/pi/logstd"
        string_val: "oldpi/model/pi/w"
        string_val: "oldpi/model/pi_fc0/b"
        string_val: "oldpi/model/pi_fc0/w"
        string_val: "oldpi/model/pi_fc1/b"
        string_val: "oldpi/model/pi_fc1/w"
        string_val: "oldpi/model/q/b"
        string_val: "oldpi/model/q/w"
        string_val: "oldpi/model/vf/b"
        string_val: "oldpi/model/vf/w"
        string_val: "oldpi/model/vf_fc0/b"
        string_val: "oldpi/model/vf_fc0/w"
        string_val: "oldpi/model/vf_fc1/b"
        string_val: "oldpi/model/vf_fc1/w"
      }
    }
  }
}
node {
  name: "save_5/SaveV2/shape_and_slices"
  op: "Const"
  attr {
    key: "dtype"
    value {
      type: DT_STRING
    }
  }
  attr {
    key: "value"
    value {
      tensor {
        dtype: DT_STRING
        tensor_shape {
          dim {
            size: 30
          }
        }
        string_val: ""
        string_val: ""
        string_val: ""
        string_val: ""
        string_val: ""
        string_val: ""
        string_val: ""
        string_val: ""
        string_val: ""
        string_val: ""
        string_val: ""
        string_val: ""
        string_val: ""
        string_val: ""
        string_val: ""
        string_val: ""
        string_val: ""
        string_val: ""
        string_val: ""
        string_val: ""
        string_val: ""
        string_val: ""
        string_val: ""
        string_val: ""
        string_val: ""
        string_val: ""
        string_val: ""
        string_val: ""
        string_val: ""
        string_val: ""
      }
    }
  }
}
node {
  name: "save_5/SaveV2"
  op: "SaveV2"
  input: "save_5/Const"
  input: "save_5/SaveV2/tensor_names"
  input: "save_5/SaveV2/shape_and_slices"
  input: "model/pi/b"
  input: "model/pi/logstd"
  input: "model/pi/w"
  input: "model/pi_fc0/b"
  input: "model/pi_fc0/w"
  input: "model/pi_fc1/b"
  input: "model/pi_fc1/w"
  input: "model/q/b"
  input: "model/q/w"
  input: "model/vf/b"
  input: "model/vf/w"
  input: "model/vf_fc0/b"
  input: "model/vf_fc0/w"
  input: "model/vf_fc1/b"
  input: "model/vf_fc1/w"
  input: "oldpi/model/pi/b"
  input: "oldpi/model/pi/logstd"
  input: "oldpi/model/pi/w"
  input: "oldpi/model/pi_fc0/b"
  input: "oldpi/model/pi_fc0/w"
  input: "oldpi/model/pi_fc1/b"
  input: "oldpi/model/pi_fc1/w"
  input: "oldpi/model/q/b"
  input: "oldpi/model/q/w"
  input: "oldpi/model/vf/b"
  input: "oldpi/model/vf/w"
  input: "oldpi/model/vf_fc0/b"
  input: "oldpi/model/vf_fc0/w"
  input: "oldpi/model/vf_fc1/b"
  input: "oldpi/model/vf_fc1/w"
  attr {
    key: "dtypes"
    value {
      list {
        type: DT_FLOAT
        type: DT_FLOAT
        type: DT_FLOAT
        type: DT_FLOAT
        type: DT_FLOAT
        type: DT_FLOAT
        type: DT_FLOAT
        type: DT_FLOAT
        type: DT_FLOAT
        type: DT_FLOAT
        type: DT_FLOAT
        type: DT_FLOAT
        type: DT_FLOAT
        type: DT_FLOAT
        type: DT_FLOAT
        type: DT_FLOAT
        type: DT_FLOAT
        type: DT_FLOAT
        type: DT_FLOAT
        type: DT_FLOAT
        type: DT_FLOAT
        type: DT_FLOAT
        type: DT_FLOAT
        type: DT_FLOAT
        type: DT_FLOAT
        type: DT_FLOAT
        type: DT_FLOAT
        type: DT_FLOAT
        type: DT_FLOAT
        type: DT_FLOAT
      }
    }
  }
}
node {
  name: "save_5/control_dependency"
  op: "Identity"
  input: "save_5/Const"
  input: "^save_5/SaveV2"
  attr {
    key: "T"
    value {
      type: DT_STRING
    }
  }
  attr {
    key: "_class"
    value {
      list {
        s: "loc:@save_5/Const"
      }
    }
  }
}
node {
  name: "save_5/RestoreV2/tensor_names"
  op: "Const"
  attr {
    key: "dtype"
    value {
      type: DT_STRING
    }
  }
  attr {
    key: "value"
    value {
      tensor {
        dtype: DT_STRING
        tensor_shape {
          dim {
            size: 30
          }
        }
        string_val: "model/pi/b"
        string_val: "model/pi/logstd"
        string_val: "model/pi/w"
        string_val: "model/pi_fc0/b"
        string_val: "model/pi_fc0/w"
        string_val: "model/pi_fc1/b"
        string_val: "model/pi_fc1/w"
        string_val: "model/q/b"
        string_val: "model/q/w"
        string_val: "model/vf/b"
        string_val: "model/vf/w"
        string_val: "model/vf_fc0/b"
        string_val: "model/vf_fc0/w"
        string_val: "model/vf_fc1/b"
        string_val: "model/vf_fc1/w"
        string_val: "oldpi/model/pi/b"
        string_val: "oldpi/model/pi/logstd"
        string_val: "oldpi/model/pi/w"
        string_val: "oldpi/model/pi_fc0/b"
        string_val: "oldpi/model/pi_fc0/w"
        string_val: "oldpi/model/pi_fc1/b"
        string_val: "oldpi/model/pi_fc1/w"
        string_val: "oldpi/model/q/b"
        string_val: "oldpi/model/q/w"
        string_val: "oldpi/model/vf/b"
        string_val: "oldpi/model/vf/w"
        string_val: "oldpi/model/vf_fc0/b"
        string_val: "oldpi/model/vf_fc0/w"
        string_val: "oldpi/model/vf_fc1/b"
        string_val: "oldpi/model/vf_fc1/w"
      }
    }
  }
}
node {
  name: "save_5/RestoreV2/shape_and_slices"
  op: "Const"
  attr {
    key: "dtype"
    value {
      type: DT_STRING
    }
  }
  attr {
    key: "value"
    value {
      tensor {
        dtype: DT_STRING
        tensor_shape {
          dim {
            size: 30
          }
        }
        string_val: ""
        string_val: ""
        string_val: ""
        string_val: ""
        string_val: ""
        string_val: ""
        string_val: ""
        string_val: ""
        string_val: ""
        string_val: ""
        string_val: ""
        string_val: ""
        string_val: ""
        string_val: ""
        string_val: ""
        string_val: ""
        string_val: ""
        string_val: ""
        string_val: ""
        string_val: ""
        string_val: ""
        string_val: ""
        string_val: ""
        string_val: ""
        string_val: ""
        string_val: ""
        string_val: ""
        string_val: ""
        string_val: ""
        string_val: ""
      }
    }
  }
}
node {
  name: "save_5/RestoreV2"
  op: "RestoreV2"
  input: "save_5/Const"
  input: "save_5/RestoreV2/tensor_names"
  input: "save_5/RestoreV2/shape_and_slices"
  attr {
    key: "dtypes"
    value {
      list {
        type: DT_FLOAT
        type: DT_FLOAT
        type: DT_FLOAT
        type: DT_FLOAT
        type: DT_FLOAT
        type: DT_FLOAT
        type: DT_FLOAT
        type: DT_FLOAT
        type: DT_FLOAT
        type: DT_FLOAT
        type: DT_FLOAT
        type: DT_FLOAT
        type: DT_FLOAT
        type: DT_FLOAT
        type: DT_FLOAT
        type: DT_FLOAT
        type: DT_FLOAT
        type: DT_FLOAT
        type: DT_FLOAT
        type: DT_FLOAT
        type: DT_FLOAT
        type: DT_FLOAT
        type: DT_FLOAT
        type: DT_FLOAT
        type: DT_FLOAT
        type: DT_FLOAT
        type: DT_FLOAT
        type: DT_FLOAT
        type: DT_FLOAT
        type: DT_FLOAT
      }
    }
  }
}
node {
  name: "save_5/Assign"
  op: "Identity"
  input: "save_5/RestoreV2"
  attr {
    key: "T"
    value {
      type: DT_FLOAT
    }
  }
  attr {
    key: "_class"
    value {
      list {
        s: "loc:@model/pi/b"
      }
    }
  }
}
node {
  name: "save_5/Assign_1"
  op: "Identity"
  input: "save_5/RestoreV2:1"
  attr {
    key: "T"
    value {
      type: DT_FLOAT
    }
  }
  attr {
    key: "_class"
    value {
      list {
        s: "loc:@model/pi/logstd"
      }
    }
  }
}
node {
  name: "save_5/Assign_2"
  op: "Identity"
  input: "save_5/RestoreV2:2"
  attr {
    key: "T"
    value {
      type: DT_FLOAT
    }
  }
  attr {
    key: "_class"
    value {
      list {
        s: "loc:@model/pi/w"
      }
    }
  }
}
node {
  name: "save_5/Assign_3"
  op: "Identity"
  input: "save_5/RestoreV2:3"
  attr {
    key: "T"
    value {
      type: DT_FLOAT
    }
  }
  attr {
    key: "_class"
    value {
      list {
        s: "loc:@model/pi_fc0/b"
      }
    }
  }
}
node {
  name: "save_5/Assign_4"
  op: "Identity"
  input: "save_5/RestoreV2:4"
  attr {
    key: "T"
    value {
      type: DT_FLOAT
    }
  }
  attr {
    key: "_class"
    value {
      list {
        s: "loc:@model/pi_fc0/w"
      }
    }
  }
}
node {
  name: "save_5/Assign_5"
  op: "Identity"
  input: "save_5/RestoreV2:5"
  attr {
    key: "T"
    value {
      type: DT_FLOAT
    }
  }
  attr {
    key: "_class"
    value {
      list {
        s: "loc:@model/pi_fc1/b"
      }
    }
  }
}
node {
  name: "save_5/Assign_6"
  op: "Identity"
  input: "save_5/RestoreV2:6"
  attr {
    key: "T"
    value {
      type: DT_FLOAT
    }
  }
  attr {
    key: "_class"
    value {
      list {
        s: "loc:@model/pi_fc1/w"
      }
    }
  }
}
node {
  name: "save_5/Assign_7"
  op: "Identity"
  input: "save_5/RestoreV2:7"
  attr {
    key: "T"
    value {
      type: DT_FLOAT
    }
  }
  attr {
    key: "_class"
    value {
      list {
        s: "loc:@model/q/b"
      }
    }
  }
}
node {
  name: "save_5/Assign_8"
  op: "Identity"
  input: "save_5/RestoreV2:8"
  attr {
    key: "T"
    value {
      type: DT_FLOAT
    }
  }
  attr {
    key: "_class"
    value {
      list {
        s: "loc:@model/q/w"
      }
    }
  }
}
node {
  name: "save_5/Assign_9"
  op: "Identity"
  input: "save_5/RestoreV2:9"
  attr {
    key: "T"
    value {
      type: DT_FLOAT
    }
  }
  attr {
    key: "_class"
    value {
      list {
        s: "loc:@model/vf/b"
      }
    }
  }
}
node {
  name: "save_5/Assign_10"
  op: "Identity"
  input: "save_5/RestoreV2:10"
  attr {
    key: "T"
    value {
      type: DT_FLOAT
    }
  }
  attr {
    key: "_class"
    value {
      list {
        s: "loc:@model/vf/w"
      }
    }
  }
}
node {
  name: "save_5/Assign_11"
  op: "Identity"
  input: "save_5/RestoreV2:11"
  attr {
    key: "T"
    value {
      type: DT_FLOAT
    }
  }
  attr {
    key: "_class"
    value {
      list {
        s: "loc:@model/vf_fc0/b"
      }
    }
  }
}
node {
  name: "save_5/Assign_12"
  op: "Identity"
  input: "save_5/RestoreV2:12"
  attr {
    key: "T"
    value {
      type: DT_FLOAT
    }
  }
  attr {
    key: "_class"
    value {
      list {
        s: "loc:@model/vf_fc0/w"
      }
    }
  }
}
node {
  name: "save_5/Assign_13"
  op: "Identity"
  input: "save_5/RestoreV2:13"
  attr {
    key: "T"
    value {
      type: DT_FLOAT
    }
  }
  attr {
    key: "_class"
    value {
      list {
        s: "loc:@model/vf_fc1/b"
      }
    }
  }
}
node {
  name: "save_5/Assign_14"
  op: "Identity"
  input: "save_5/RestoreV2:14"
  attr {
    key: "T"
    value {
      type: DT_FLOAT
    }
  }
  attr {
    key: "_class"
    value {
      list {
        s: "loc:@model/vf_fc1/w"
      }
    }
  }
}
node {
  name: "save_5/Assign_15"
  op: "Identity"
  input: "save_5/RestoreV2:15"
  attr {
    key: "T"
    value {
      type: DT_FLOAT
    }
  }
  attr {
    key: "_class"
    value {
      list {
        s: "loc:@oldpi/model/pi/b"
      }
    }
  }
}
node {
  name: "save_5/Assign_16"
  op: "Identity"
  input: "save_5/RestoreV2:16"
  attr {
    key: "T"
    value {
      type: DT_FLOAT
    }
  }
  attr {
    key: "_class"
    value {
      list {
        s: "loc:@oldpi/model/pi/logstd"
      }
    }
  }
}
node {
  name: "save_5/Assign_17"
  op: "Identity"
  input: "save_5/RestoreV2:17"
  attr {
    key: "T"
    value {
      type: DT_FLOAT
    }
  }
  attr {
    key: "_class"
    value {
      list {
        s: "loc:@oldpi/model/pi/w"
      }
    }
  }
}
node {
  name: "save_5/Assign_18"
  op: "Identity"
  input: "save_5/RestoreV2:18"
  attr {
    key: "T"
    value {
      type: DT_FLOAT
    }
  }
  attr {
    key: "_class"
    value {
      list {
        s: "loc:@oldpi/model/pi_fc0/b"
      }
    }
  }
}
node {
  name: "save_5/Assign_19"
  op: "Identity"
  input: "save_5/RestoreV2:19"
  attr {
    key: "T"
    value {
      type: DT_FLOAT
    }
  }
  attr {
    key: "_class"
    value {
      list {
        s: "loc:@oldpi/model/pi_fc0/w"
      }
    }
  }
}
node {
  name: "save_5/Assign_20"
  op: "Identity"
  input: "save_5/RestoreV2:20"
  attr {
    key: "T"
    value {
      type: DT_FLOAT
    }
  }
  attr {
    key: "_class"
    value {
      list {
        s: "loc:@oldpi/model/pi_fc1/b"
      }
    }
  }
}
node {
  name: "save_5/Assign_21"
  op: "Identity"
  input: "save_5/RestoreV2:21"
  attr {
    key: "T"
    value {
      type: DT_FLOAT
    }
  }
  attr {
    key: "_class"
    value {
      list {
        s: "loc:@oldpi/model/pi_fc1/w"
      }
    }
  }
}
node {
  name: "save_5/Assign_22"
  op: "Identity"
  input: "save_5/RestoreV2:22"
  attr {
    key: "T"
    value {
      type: DT_FLOAT
    }
  }
  attr {
    key: "_class"
    value {
      list {
        s: "loc:@oldpi/model/q/b"
      }
    }
  }
}
node {
  name: "save_5/Assign_23"
  op: "Identity"
  input: "save_5/RestoreV2:23"
  attr {
    key: "T"
    value {
      type: DT_FLOAT
    }
  }
  attr {
    key: "_class"
    value {
      list {
        s: "loc:@oldpi/model/q/w"
      }
    }
  }
}
node {
  name: "save_5/Assign_24"
  op: "Identity"
  input: "save_5/RestoreV2:24"
  attr {
    key: "T"
    value {
      type: DT_FLOAT
    }
  }
  attr {
    key: "_class"
    value {
      list {
        s: "loc:@oldpi/model/vf/b"
      }
    }
  }
}
node {
  name: "save_5/Assign_25"
  op: "Identity"
  input: "save_5/RestoreV2:25"
  attr {
    key: "T"
    value {
      type: DT_FLOAT
    }
  }
  attr {
    key: "_class"
    value {
      list {
        s: "loc:@oldpi/model/vf/w"
      }
    }
  }
}
node {
  name: "save_5/Assign_26"
  op: "Identity"
  input: "save_5/RestoreV2:26"
  attr {
    key: "T"
    value {
      type: DT_FLOAT
    }
  }
  attr {
    key: "_class"
    value {
      list {
        s: "loc:@oldpi/model/vf_fc0/b"
      }
    }
  }
}
node {
  name: "save_5/Assign_27"
  op: "Identity"
  input: "save_5/RestoreV2:27"
  attr {
    key: "T"
    value {
      type: DT_FLOAT
    }
  }
  attr {
    key: "_class"
    value {
      list {
        s: "loc:@oldpi/model/vf_fc0/w"
      }
    }
  }
}
node {
  name: "save_5/Assign_28"
  op: "Identity"
  input: "save_5/RestoreV2:28"
  attr {
    key: "T"
    value {
      type: DT_FLOAT
    }
  }
  attr {
    key: "_class"
    value {
      list {
        s: "loc:@oldpi/model/vf_fc1/b"
      }
    }
  }
}
node {
  name: "save_5/Assign_29"
  op: "Identity"
  input: "save_5/RestoreV2:29"
  attr {
    key: "T"
    value {
      type: DT_FLOAT
    }
  }
  attr {
    key: "_class"
    value {
      list {
        s: "loc:@oldpi/model/vf_fc1/w"
      }
    }
  }
}
node {
  name: "save_5/restore_all"
  op: "NoOp"
  input: "^save_5/Assign"
  input: "^save_5/Assign_1"
  input: "^save_5/Assign_10"
  input: "^save_5/Assign_11"
  input: "^save_5/Assign_12"
  input: "^save_5/Assign_13"
  input: "^save_5/Assign_14"
  input: "^save_5/Assign_15"
  input: "^save_5/Assign_16"
  input: "^save_5/Assign_17"
  input: "^save_5/Assign_18"
  input: "^save_5/Assign_19"
  input: "^save_5/Assign_2"
  input: "^save_5/Assign_20"
  input: "^save_5/Assign_21"
  input: "^save_5/Assign_22"
  input: "^save_5/Assign_23"
  input: "^save_5/Assign_24"
  input: "^save_5/Assign_25"
  input: "^save_5/Assign_26"
  input: "^save_5/Assign_27"
  input: "^save_5/Assign_28"
  input: "^save_5/Assign_29"
  input: "^save_5/Assign_3"
  input: "^save_5/Assign_4"
  input: "^save_5/Assign_5"
  input: "^save_5/Assign_6"
  input: "^save_5/Assign_7"
  input: "^save_5/Assign_8"
  input: "^save_5/Assign_9"
}
node {
  name: "save_6/Const"
  op: "Const"
  attr {
    key: "dtype"
    value {
      type: DT_STRING
    }
  }
  attr {
    key: "value"
    value {
      tensor {
        dtype: DT_STRING
        tensor_shape {
        }
        string_val: "model"
      }
    }
  }
}
node {
  name: "save_6/StringJoin/inputs_1"
  op: "Const"
  attr {
    key: "dtype"
    value {
      type: DT_STRING
    }
  }
  attr {
    key: "value"
    value {
      tensor {
        dtype: DT_STRING
        tensor_shape {
        }
        string_val: "_temp_2c18fd82db4545e49d3079e8fa38d84b/part"
      }
    }
  }
}
node {
  name: "save_6/StringJoin"
  op: "StringJoin"
  input: "save_6/Const"
  input: "save_6/StringJoin/inputs_1"
  attr {
    key: "N"
    value {
      i: 2
    }
  }
  attr {
    key: "separator"
    value {
      s: ""
    }
  }
}
node {
  name: "save_6/num_shards"
  op: "Const"
  attr {
    key: "dtype"
    value {
      type: DT_INT32
    }
  }
  attr {
    key: "value"
    value {
      tensor {
        dtype: DT_INT32
        tensor_shape {
        }
        int_val: 1
      }
    }
  }
}
node {
  name: "save_6/ShardedFilename/shard"
  op: "Const"
  attr {
    key: "dtype"
    value {
      type: DT_INT32
    }
  }
  attr {
    key: "value"
    value {
      tensor {
        dtype: DT_INT32
        tensor_shape {
        }
        int_val: 0
      }
    }
  }
}
node {
  name: "save_6/ShardedFilename"
  op: "ShardedFilename"
  input: "save_6/StringJoin"
  input: "save_6/ShardedFilename/shard"
  input: "save_6/num_shards"
}
node {
  name: "save_6/SaveV2/tensor_names"
  op: "Const"
  attr {
    key: "dtype"
    value {
      type: DT_STRING
    }
  }
  attr {
    key: "value"
    value {
      tensor {
        dtype: DT_STRING
        tensor_shape {
          dim {
            size: 30
          }
        }
        string_val: "model/pi/b"
        string_val: "model/pi/logstd"
        string_val: "model/pi/w"
        string_val: "model/pi_fc0/b"
        string_val: "model/pi_fc0/w"
        string_val: "model/pi_fc1/b"
        string_val: "model/pi_fc1/w"
        string_val: "model/q/b"
        string_val: "model/q/w"
        string_val: "model/vf/b"
        string_val: "model/vf/w"
        string_val: "model/vf_fc0/b"
        string_val: "model/vf_fc0/w"
        string_val: "model/vf_fc1/b"
        string_val: "model/vf_fc1/w"
        string_val: "oldpi/model/pi/b"
        string_val: "oldpi/model/pi/logstd"
        string_val: "oldpi/model/pi/w"
        string_val: "oldpi/model/pi_fc0/b"
        string_val: "oldpi/model/pi_fc0/w"
        string_val: "oldpi/model/pi_fc1/b"
        string_val: "oldpi/model/pi_fc1/w"
        string_val: "oldpi/model/q/b"
        string_val: "oldpi/model/q/w"
        string_val: "oldpi/model/vf/b"
        string_val: "oldpi/model/vf/w"
        string_val: "oldpi/model/vf_fc0/b"
        string_val: "oldpi/model/vf_fc0/w"
        string_val: "oldpi/model/vf_fc1/b"
        string_val: "oldpi/model/vf_fc1/w"
      }
    }
  }
}
node {
  name: "save_6/SaveV2/shape_and_slices"
  op: "Const"
  attr {
    key: "dtype"
    value {
      type: DT_STRING
    }
  }
  attr {
    key: "value"
    value {
      tensor {
        dtype: DT_STRING
        tensor_shape {
          dim {
            size: 30
          }
        }
        string_val: ""
        string_val: ""
        string_val: ""
        string_val: ""
        string_val: ""
        string_val: ""
        string_val: ""
        string_val: ""
        string_val: ""
        string_val: ""
        string_val: ""
        string_val: ""
        string_val: ""
        string_val: ""
        string_val: ""
        string_val: ""
        string_val: ""
        string_val: ""
        string_val: ""
        string_val: ""
        string_val: ""
        string_val: ""
        string_val: ""
        string_val: ""
        string_val: ""
        string_val: ""
        string_val: ""
        string_val: ""
        string_val: ""
        string_val: ""
      }
    }
  }
}
node {
  name: "save_6/SaveV2"
  op: "SaveV2"
  input: "save_6/ShardedFilename"
  input: "save_6/SaveV2/tensor_names"
  input: "save_6/SaveV2/shape_and_slices"
  input: "model/pi/b"
  input: "model/pi/logstd"
  input: "model/pi/w"
  input: "model/pi_fc0/b"
  input: "model/pi_fc0/w"
  input: "model/pi_fc1/b"
  input: "model/pi_fc1/w"
  input: "model/q/b"
  input: "model/q/w"
  input: "model/vf/b"
  input: "model/vf/w"
  input: "model/vf_fc0/b"
  input: "model/vf_fc0/w"
  input: "model/vf_fc1/b"
  input: "model/vf_fc1/w"
  input: "oldpi/model/pi/b"
  input: "oldpi/model/pi/logstd"
  input: "oldpi/model/pi/w"
  input: "oldpi/model/pi_fc0/b"
  input: "oldpi/model/pi_fc0/w"
  input: "oldpi/model/pi_fc1/b"
  input: "oldpi/model/pi_fc1/w"
  input: "oldpi/model/q/b"
  input: "oldpi/model/q/w"
  input: "oldpi/model/vf/b"
  input: "oldpi/model/vf/w"
  input: "oldpi/model/vf_fc0/b"
  input: "oldpi/model/vf_fc0/w"
  input: "oldpi/model/vf_fc1/b"
  input: "oldpi/model/vf_fc1/w"
  attr {
    key: "dtypes"
    value {
      list {
        type: DT_FLOAT
        type: DT_FLOAT
        type: DT_FLOAT
        type: DT_FLOAT
        type: DT_FLOAT
        type: DT_FLOAT
        type: DT_FLOAT
        type: DT_FLOAT
        type: DT_FLOAT
        type: DT_FLOAT
        type: DT_FLOAT
        type: DT_FLOAT
        type: DT_FLOAT
        type: DT_FLOAT
        type: DT_FLOAT
        type: DT_FLOAT
        type: DT_FLOAT
        type: DT_FLOAT
        type: DT_FLOAT
        type: DT_FLOAT
        type: DT_FLOAT
        type: DT_FLOAT
        type: DT_FLOAT
        type: DT_FLOAT
        type: DT_FLOAT
        type: DT_FLOAT
        type: DT_FLOAT
        type: DT_FLOAT
        type: DT_FLOAT
        type: DT_FLOAT
      }
    }
  }
}
node {
  name: "save_6/control_dependency"
  op: "Identity"
  input: "save_6/ShardedFilename"
  input: "^save_6/SaveV2"
  attr {
    key: "T"
    value {
      type: DT_STRING
    }
  }
  attr {
    key: "_class"
    value {
      list {
        s: "loc:@save_6/ShardedFilename"
      }
    }
  }
}
node {
  name: "save_6/MergeV2Checkpoints/checkpoint_prefixes"
  op: "Pack"
  input: "save_6/ShardedFilename"
  input: "^save_6/control_dependency"
  attr {
    key: "N"
    value {
      i: 1
    }
  }
  attr {
    key: "T"
    value {
      type: DT_STRING
    }
  }
  attr {
    key: "axis"
    value {
      i: 0
    }
  }
}
node {
  name: "save_6/MergeV2Checkpoints"
  op: "MergeV2Checkpoints"
  input: "save_6/MergeV2Checkpoints/checkpoint_prefixes"
  input: "save_6/Const"
  attr {
    key: "delete_old_dirs"
    value {
      b: true
    }
  }
}
node {
  name: "save_6/Identity"
  op: "Identity"
  input: "save_6/Const"
  input: "^save_6/MergeV2Checkpoints"
  input: "^save_6/control_dependency"
  attr {
    key: "T"
    value {
      type: DT_STRING
    }
  }
}
node {
  name: "save_6/RestoreV2/tensor_names"
  op: "Const"
  attr {
    key: "dtype"
    value {
      type: DT_STRING
    }
  }
  attr {
    key: "value"
    value {
      tensor {
        dtype: DT_STRING
        tensor_shape {
          dim {
            size: 30
          }
        }
        string_val: "model/pi/b"
        string_val: "model/pi/logstd"
        string_val: "model/pi/w"
        string_val: "model/pi_fc0/b"
        string_val: "model/pi_fc0/w"
        string_val: "model/pi_fc1/b"
        string_val: "model/pi_fc1/w"
        string_val: "model/q/b"
        string_val: "model/q/w"
        string_val: "model/vf/b"
        string_val: "model/vf/w"
        string_val: "model/vf_fc0/b"
        string_val: "model/vf_fc0/w"
        string_val: "model/vf_fc1/b"
        string_val: "model/vf_fc1/w"
        string_val: "oldpi/model/pi/b"
        string_val: "oldpi/model/pi/logstd"
        string_val: "oldpi/model/pi/w"
        string_val: "oldpi/model/pi_fc0/b"
        string_val: "oldpi/model/pi_fc0/w"
        string_val: "oldpi/model/pi_fc1/b"
        string_val: "oldpi/model/pi_fc1/w"
        string_val: "oldpi/model/q/b"
        string_val: "oldpi/model/q/w"
        string_val: "oldpi/model/vf/b"
        string_val: "oldpi/model/vf/w"
        string_val: "oldpi/model/vf_fc0/b"
        string_val: "oldpi/model/vf_fc0/w"
        string_val: "oldpi/model/vf_fc1/b"
        string_val: "oldpi/model/vf_fc1/w"
      }
    }
  }
}
node {
  name: "save_6/RestoreV2/shape_and_slices"
  op: "Const"
  attr {
    key: "dtype"
    value {
      type: DT_STRING
    }
  }
  attr {
    key: "value"
    value {
      tensor {
        dtype: DT_STRING
        tensor_shape {
          dim {
            size: 30
          }
        }
        string_val: ""
        string_val: ""
        string_val: ""
        string_val: ""
        string_val: ""
        string_val: ""
        string_val: ""
        string_val: ""
        string_val: ""
        string_val: ""
        string_val: ""
        string_val: ""
        string_val: ""
        string_val: ""
        string_val: ""
        string_val: ""
        string_val: ""
        string_val: ""
        string_val: ""
        string_val: ""
        string_val: ""
        string_val: ""
        string_val: ""
        string_val: ""
        string_val: ""
        string_val: ""
        string_val: ""
        string_val: ""
        string_val: ""
        string_val: ""
      }
    }
  }
}
node {
  name: "save_6/RestoreV2"
  op: "RestoreV2"
  input: "save_6/Const"
  input: "save_6/RestoreV2/tensor_names"
  input: "save_6/RestoreV2/shape_and_slices"
  attr {
    key: "dtypes"
    value {
      list {
        type: DT_FLOAT
        type: DT_FLOAT
        type: DT_FLOAT
        type: DT_FLOAT
        type: DT_FLOAT
        type: DT_FLOAT
        type: DT_FLOAT
        type: DT_FLOAT
        type: DT_FLOAT
        type: DT_FLOAT
        type: DT_FLOAT
        type: DT_FLOAT
        type: DT_FLOAT
        type: DT_FLOAT
        type: DT_FLOAT
        type: DT_FLOAT
        type: DT_FLOAT
        type: DT_FLOAT
        type: DT_FLOAT
        type: DT_FLOAT
        type: DT_FLOAT
        type: DT_FLOAT
        type: DT_FLOAT
        type: DT_FLOAT
        type: DT_FLOAT
        type: DT_FLOAT
        type: DT_FLOAT
        type: DT_FLOAT
        type: DT_FLOAT
        type: DT_FLOAT
      }
    }
  }
}
node {
  name: "save_6/Assign"
  op: "Identity"
  input: "save_6/RestoreV2"
  attr {
    key: "T"
    value {
      type: DT_FLOAT
    }
  }
  attr {
    key: "_class"
    value {
      list {
        s: "loc:@model/pi/b"
      }
    }
  }
}
node {
  name: "save_6/Assign_1"
  op: "Identity"
  input: "save_6/RestoreV2:1"
  attr {
    key: "T"
    value {
      type: DT_FLOAT
    }
  }
  attr {
    key: "_class"
    value {
      list {
        s: "loc:@model/pi/logstd"
      }
    }
  }
}
node {
  name: "save_6/Assign_2"
  op: "Identity"
  input: "save_6/RestoreV2:2"
  attr {
    key: "T"
    value {
      type: DT_FLOAT
    }
  }
  attr {
    key: "_class"
    value {
      list {
        s: "loc:@model/pi/w"
      }
    }
  }
}
node {
  name: "save_6/Assign_3"
  op: "Identity"
  input: "save_6/RestoreV2:3"
  attr {
    key: "T"
    value {
      type: DT_FLOAT
    }
  }
  attr {
    key: "_class"
    value {
      list {
        s: "loc:@model/pi_fc0/b"
      }
    }
  }
}
node {
  name: "save_6/Assign_4"
  op: "Identity"
  input: "save_6/RestoreV2:4"
  attr {
    key: "T"
    value {
      type: DT_FLOAT
    }
  }
  attr {
    key: "_class"
    value {
      list {
        s: "loc:@model/pi_fc0/w"
      }
    }
  }
}
node {
  name: "save_6/Assign_5"
  op: "Identity"
  input: "save_6/RestoreV2:5"
  attr {
    key: "T"
    value {
      type: DT_FLOAT
    }
  }
  attr {
    key: "_class"
    value {
      list {
        s: "loc:@model/pi_fc1/b"
      }
    }
  }
}
node {
  name: "save_6/Assign_6"
  op: "Identity"
  input: "save_6/RestoreV2:6"
  attr {
    key: "T"
    value {
      type: DT_FLOAT
    }
  }
  attr {
    key: "_class"
    value {
      list {
        s: "loc:@model/pi_fc1/w"
      }
    }
  }
}
node {
  name: "save_6/Assign_7"
  op: "Identity"
  input: "save_6/RestoreV2:7"
  attr {
    key: "T"
    value {
      type: DT_FLOAT
    }
  }
  attr {
    key: "_class"
    value {
      list {
        s: "loc:@model/q/b"
      }
    }
  }
}
node {
  name: "save_6/Assign_8"
  op: "Identity"
  input: "save_6/RestoreV2:8"
  attr {
    key: "T"
    value {
      type: DT_FLOAT
    }
  }
  attr {
    key: "_class"
    value {
      list {
        s: "loc:@model/q/w"
      }
    }
  }
}
node {
  name: "save_6/Assign_9"
  op: "Identity"
  input: "save_6/RestoreV2:9"
  attr {
    key: "T"
    value {
      type: DT_FLOAT
    }
  }
  attr {
    key: "_class"
    value {
      list {
        s: "loc:@model/vf/b"
      }
    }
  }
}
node {
  name: "save_6/Assign_10"
  op: "Identity"
  input: "save_6/RestoreV2:10"
  attr {
    key: "T"
    value {
      type: DT_FLOAT
    }
  }
  attr {
    key: "_class"
    value {
      list {
        s: "loc:@model/vf/w"
      }
    }
  }
}
node {
  name: "save_6/Assign_11"
  op: "Identity"
  input: "save_6/RestoreV2:11"
  attr {
    key: "T"
    value {
      type: DT_FLOAT
    }
  }
  attr {
    key: "_class"
    value {
      list {
        s: "loc:@model/vf_fc0/b"
      }
    }
  }
}
node {
  name: "save_6/Assign_12"
  op: "Identity"
  input: "save_6/RestoreV2:12"
  attr {
    key: "T"
    value {
      type: DT_FLOAT
    }
  }
  attr {
    key: "_class"
    value {
      list {
        s: "loc:@model/vf_fc0/w"
      }
    }
  }
}
node {
  name: "save_6/Assign_13"
  op: "Identity"
  input: "save_6/RestoreV2:13"
  attr {
    key: "T"
    value {
      type: DT_FLOAT
    }
  }
  attr {
    key: "_class"
    value {
      list {
        s: "loc:@model/vf_fc1/b"
      }
    }
  }
}
node {
  name: "save_6/Assign_14"
  op: "Identity"
  input: "save_6/RestoreV2:14"
  attr {
    key: "T"
    value {
      type: DT_FLOAT
    }
  }
  attr {
    key: "_class"
    value {
      list {
        s: "loc:@model/vf_fc1/w"
      }
    }
  }
}
node {
  name: "save_6/Assign_15"
  op: "Identity"
  input: "save_6/RestoreV2:15"
  attr {
    key: "T"
    value {
      type: DT_FLOAT
    }
  }
  attr {
    key: "_class"
    value {
      list {
        s: "loc:@oldpi/model/pi/b"
      }
    }
  }
}
node {
  name: "save_6/Assign_16"
  op: "Identity"
  input: "save_6/RestoreV2:16"
  attr {
    key: "T"
    value {
      type: DT_FLOAT
    }
  }
  attr {
    key: "_class"
    value {
      list {
        s: "loc:@oldpi/model/pi/logstd"
      }
    }
  }
}
node {
  name: "save_6/Assign_17"
  op: "Identity"
  input: "save_6/RestoreV2:17"
  attr {
    key: "T"
    value {
      type: DT_FLOAT
    }
  }
  attr {
    key: "_class"
    value {
      list {
        s: "loc:@oldpi/model/pi/w"
      }
    }
  }
}
node {
  name: "save_6/Assign_18"
  op: "Identity"
  input: "save_6/RestoreV2:18"
  attr {
    key: "T"
    value {
      type: DT_FLOAT
    }
  }
  attr {
    key: "_class"
    value {
      list {
        s: "loc:@oldpi/model/pi_fc0/b"
      }
    }
  }
}
node {
  name: "save_6/Assign_19"
  op: "Identity"
  input: "save_6/RestoreV2:19"
  attr {
    key: "T"
    value {
      type: DT_FLOAT
    }
  }
  attr {
    key: "_class"
    value {
      list {
        s: "loc:@oldpi/model/pi_fc0/w"
      }
    }
  }
}
node {
  name: "save_6/Assign_20"
  op: "Identity"
  input: "save_6/RestoreV2:20"
  attr {
    key: "T"
    value {
      type: DT_FLOAT
    }
  }
  attr {
    key: "_class"
    value {
      list {
        s: "loc:@oldpi/model/pi_fc1/b"
      }
    }
  }
}
node {
  name: "save_6/Assign_21"
  op: "Identity"
  input: "save_6/RestoreV2:21"
  attr {
    key: "T"
    value {
      type: DT_FLOAT
    }
  }
  attr {
    key: "_class"
    value {
      list {
        s: "loc:@oldpi/model/pi_fc1/w"
      }
    }
  }
}
node {
  name: "save_6/Assign_22"
  op: "Identity"
  input: "save_6/RestoreV2:22"
  attr {
    key: "T"
    value {
      type: DT_FLOAT
    }
  }
  attr {
    key: "_class"
    value {
      list {
        s: "loc:@oldpi/model/q/b"
      }
    }
  }
}
node {
  name: "save_6/Assign_23"
  op: "Identity"
  input: "save_6/RestoreV2:23"
  attr {
    key: "T"
    value {
      type: DT_FLOAT
    }
  }
  attr {
    key: "_class"
    value {
      list {
        s: "loc:@oldpi/model/q/w"
      }
    }
  }
}
node {
  name: "save_6/Assign_24"
  op: "Identity"
  input: "save_6/RestoreV2:24"
  attr {
    key: "T"
    value {
      type: DT_FLOAT
    }
  }
  attr {
    key: "_class"
    value {
      list {
        s: "loc:@oldpi/model/vf/b"
      }
    }
  }
}
node {
  name: "save_6/Assign_25"
  op: "Identity"
  input: "save_6/RestoreV2:25"
  attr {
    key: "T"
    value {
      type: DT_FLOAT
    }
  }
  attr {
    key: "_class"
    value {
      list {
        s: "loc:@oldpi/model/vf/w"
      }
    }
  }
}
node {
  name: "save_6/Assign_26"
  op: "Identity"
  input: "save_6/RestoreV2:26"
  attr {
    key: "T"
    value {
      type: DT_FLOAT
    }
  }
  attr {
    key: "_class"
    value {
      list {
        s: "loc:@oldpi/model/vf_fc0/b"
      }
    }
  }
}
node {
  name: "save_6/Assign_27"
  op: "Identity"
  input: "save_6/RestoreV2:27"
  attr {
    key: "T"
    value {
      type: DT_FLOAT
    }
  }
  attr {
    key: "_class"
    value {
      list {
        s: "loc:@oldpi/model/vf_fc0/w"
      }
    }
  }
}
node {
  name: "save_6/Assign_28"
  op: "Identity"
  input: "save_6/RestoreV2:28"
  attr {
    key: "T"
    value {
      type: DT_FLOAT
    }
  }
  attr {
    key: "_class"
    value {
      list {
        s: "loc:@oldpi/model/vf_fc1/b"
      }
    }
  }
}
node {
  name: "save_6/Assign_29"
  op: "Identity"
  input: "save_6/RestoreV2:29"
  attr {
    key: "T"
    value {
      type: DT_FLOAT
    }
  }
  attr {
    key: "_class"
    value {
      list {
        s: "loc:@oldpi/model/vf_fc1/w"
      }
    }
  }
}
node {
  name: "save_6/restore_shard"
  op: "NoOp"
  input: "^save_6/Assign"
  input: "^save_6/Assign_1"
  input: "^save_6/Assign_10"
  input: "^save_6/Assign_11"
  input: "^save_6/Assign_12"
  input: "^save_6/Assign_13"
  input: "^save_6/Assign_14"
  input: "^save_6/Assign_15"
  input: "^save_6/Assign_16"
  input: "^save_6/Assign_17"
  input: "^save_6/Assign_18"
  input: "^save_6/Assign_19"
  input: "^save_6/Assign_2"
  input: "^save_6/Assign_20"
  input: "^save_6/Assign_21"
  input: "^save_6/Assign_22"
  input: "^save_6/Assign_23"
  input: "^save_6/Assign_24"
  input: "^save_6/Assign_25"
  input: "^save_6/Assign_26"
  input: "^save_6/Assign_27"
  input: "^save_6/Assign_28"
  input: "^save_6/Assign_29"
  input: "^save_6/Assign_3"
  input: "^save_6/Assign_4"
  input: "^save_6/Assign_5"
  input: "^save_6/Assign_6"
  input: "^save_6/Assign_7"
  input: "^save_6/Assign_8"
  input: "^save_6/Assign_9"
}
node {
  name: "save_6/restore_all"
  op: "NoOp"
  input: "^save_6/restore_shard"
}
library {
}
